node {
  name: "phase_specs"
  op: "Placeholder"
  attr {
    key: "dtype"
    value {
      type: DT_FLOAT
    }
  }
  attr {
    key: "shape"
    value {
      shape {
        dim {
          size: -1
        }
        dim {
          size: 9
        }
        dim {
          size: 129
        }
        dim {
          size: 4
        }
      }
    }
  }
}
node {
  name: "ground_truth_input"
  op: "Placeholder"
  attr {
    key: "dtype"
    value {
      type: DT_FLOAT
    }
  }
  attr {
    key: "shape"
    value {
      shape {
        dim {
          size: -1
        }
        dim {
          size: 68
        }
      }
    }
  }
}
node {
  name: "CNN/Shape"
  op: "Shape"
  input: "phase_specs"
  attr {
    key: "T"
    value {
      type: DT_FLOAT
    }
  }
  attr {
    key: "out_type"
    value {
      type: DT_INT32
    }
  }
}
node {
  name: "CNN/strided_slice/stack"
  op: "Const"
  attr {
    key: "dtype"
    value {
      type: DT_INT32
    }
  }
  attr {
    key: "value"
    value {
      tensor {
        dtype: DT_INT32
        tensor_shape {
          dim {
            size: 1
          }
        }
        int_val: 0
      }
    }
  }
}
node {
  name: "CNN/strided_slice/stack_1"
  op: "Const"
  attr {
    key: "dtype"
    value {
      type: DT_INT32
    }
  }
  attr {
    key: "value"
    value {
      tensor {
        dtype: DT_INT32
        tensor_shape {
          dim {
            size: 1
          }
        }
        int_val: 1
      }
    }
  }
}
node {
  name: "CNN/strided_slice/stack_2"
  op: "Const"
  attr {
    key: "dtype"
    value {
      type: DT_INT32
    }
  }
  attr {
    key: "value"
    value {
      tensor {
        dtype: DT_INT32
        tensor_shape {
          dim {
            size: 1
          }
        }
        int_val: 1
      }
    }
  }
}
node {
  name: "CNN/strided_slice"
  op: "StridedSlice"
  input: "CNN/Shape"
  input: "CNN/strided_slice/stack"
  input: "CNN/strided_slice/stack_1"
  input: "CNN/strided_slice/stack_2"
  attr {
    key: "Index"
    value {
      type: DT_INT32
    }
  }
  attr {
    key: "T"
    value {
      type: DT_INT32
    }
  }
  attr {
    key: "begin_mask"
    value {
      i: 0
    }
  }
  attr {
    key: "ellipsis_mask"
    value {
      i: 0
    }
  }
  attr {
    key: "end_mask"
    value {
      i: 0
    }
  }
  attr {
    key: "new_axis_mask"
    value {
      i: 0
    }
  }
  attr {
    key: "shrink_axis_mask"
    value {
      i: 1
    }
  }
}
node {
  name: "CNN/conv_1/conv2d/kernel/Initializer/random_uniform/shape"
  op: "Const"
  attr {
    key: "_class"
    value {
      list {
        s: "loc:@CNN/conv_1/conv2d/kernel"
      }
    }
  }
  attr {
    key: "dtype"
    value {
      type: DT_INT32
    }
  }
  attr {
    key: "value"
    value {
      tensor {
        dtype: DT_INT32
        tensor_shape {
          dim {
            size: 4
          }
        }
        tensor_content: "\001\000\000\000\007\000\000\000\004\000\000\000\010\000\000\000"
      }
    }
  }
}
node {
  name: "CNN/conv_1/conv2d/kernel/Initializer/random_uniform/min"
  op: "Const"
  attr {
    key: "_class"
    value {
      list {
        s: "loc:@CNN/conv_1/conv2d/kernel"
      }
    }
  }
  attr {
    key: "dtype"
    value {
      type: DT_FLOAT
    }
  }
  attr {
    key: "value"
    value {
      tensor {
        dtype: DT_FLOAT
        tensor_shape {
        }
        float_val: -0.26726123690605164
      }
    }
  }
}
node {
  name: "CNN/conv_1/conv2d/kernel/Initializer/random_uniform/max"
  op: "Const"
  attr {
    key: "_class"
    value {
      list {
        s: "loc:@CNN/conv_1/conv2d/kernel"
      }
    }
  }
  attr {
    key: "dtype"
    value {
      type: DT_FLOAT
    }
  }
  attr {
    key: "value"
    value {
      tensor {
        dtype: DT_FLOAT
        tensor_shape {
        }
        float_val: 0.26726123690605164
      }
    }
  }
}
node {
  name: "CNN/conv_1/conv2d/kernel/Initializer/random_uniform/RandomUniform"
  op: "RandomUniform"
  input: "CNN/conv_1/conv2d/kernel/Initializer/random_uniform/shape"
  attr {
    key: "T"
    value {
      type: DT_INT32
    }
  }
  attr {
    key: "_class"
    value {
      list {
        s: "loc:@CNN/conv_1/conv2d/kernel"
      }
    }
  }
  attr {
    key: "dtype"
    value {
      type: DT_FLOAT
    }
  }
  attr {
    key: "seed"
    value {
      i: 0
    }
  }
  attr {
    key: "seed2"
    value {
      i: 0
    }
  }
}
node {
  name: "CNN/conv_1/conv2d/kernel/Initializer/random_uniform/sub"
  op: "Sub"
  input: "CNN/conv_1/conv2d/kernel/Initializer/random_uniform/max"
  input: "CNN/conv_1/conv2d/kernel/Initializer/random_uniform/min"
  attr {
    key: "T"
    value {
      type: DT_FLOAT
    }
  }
  attr {
    key: "_class"
    value {
      list {
        s: "loc:@CNN/conv_1/conv2d/kernel"
      }
    }
  }
}
node {
  name: "CNN/conv_1/conv2d/kernel/Initializer/random_uniform/mul"
  op: "Mul"
  input: "CNN/conv_1/conv2d/kernel/Initializer/random_uniform/RandomUniform"
  input: "CNN/conv_1/conv2d/kernel/Initializer/random_uniform/sub"
  attr {
    key: "T"
    value {
      type: DT_FLOAT
    }
  }
  attr {
    key: "_class"
    value {
      list {
        s: "loc:@CNN/conv_1/conv2d/kernel"
      }
    }
  }
}
node {
  name: "CNN/conv_1/conv2d/kernel/Initializer/random_uniform"
  op: "Add"
  input: "CNN/conv_1/conv2d/kernel/Initializer/random_uniform/mul"
  input: "CNN/conv_1/conv2d/kernel/Initializer/random_uniform/min"
  attr {
    key: "T"
    value {
      type: DT_FLOAT
    }
  }
  attr {
    key: "_class"
    value {
      list {
        s: "loc:@CNN/conv_1/conv2d/kernel"
      }
    }
  }
}
node {
  name: "CNN/conv_1/conv2d/kernel"
  op: "VariableV2"
  attr {
    key: "_class"
    value {
      list {
        s: "loc:@CNN/conv_1/conv2d/kernel"
      }
    }
  }
  attr {
    key: "container"
    value {
      s: ""
    }
  }
  attr {
    key: "dtype"
    value {
      type: DT_FLOAT
    }
  }
  attr {
    key: "shape"
    value {
      shape {
        dim {
          size: 1
        }
        dim {
          size: 7
        }
        dim {
          size: 4
        }
        dim {
          size: 8
        }
      }
    }
  }
  attr {
    key: "shared_name"
    value {
      s: ""
    }
  }
}
node {
  name: "CNN/conv_1/conv2d/kernel/Assign"
  op: "Assign"
  input: "CNN/conv_1/conv2d/kernel"
  input: "CNN/conv_1/conv2d/kernel/Initializer/random_uniform"
  attr {
    key: "T"
    value {
      type: DT_FLOAT
    }
  }
  attr {
    key: "_class"
    value {
      list {
        s: "loc:@CNN/conv_1/conv2d/kernel"
      }
    }
  }
  attr {
    key: "use_locking"
    value {
      b: true
    }
  }
  attr {
    key: "validate_shape"
    value {
      b: true
    }
  }
}
node {
  name: "CNN/conv_1/conv2d/kernel/read"
  op: "Identity"
  input: "CNN/conv_1/conv2d/kernel"
  attr {
    key: "T"
    value {
      type: DT_FLOAT
    }
  }
  attr {
    key: "_class"
    value {
      list {
        s: "loc:@CNN/conv_1/conv2d/kernel"
      }
    }
  }
}
node {
  name: "CNN/conv_1/conv2d/bias/Initializer/zeros"
  op: "Const"
  attr {
    key: "_class"
    value {
      list {
        s: "loc:@CNN/conv_1/conv2d/bias"
      }
    }
  }
  attr {
    key: "dtype"
    value {
      type: DT_FLOAT
    }
  }
  attr {
    key: "value"
    value {
      tensor {
        dtype: DT_FLOAT
        tensor_shape {
          dim {
            size: 8
          }
        }
        float_val: 0.0
      }
    }
  }
}
node {
  name: "CNN/conv_1/conv2d/bias"
  op: "VariableV2"
  attr {
    key: "_class"
    value {
      list {
        s: "loc:@CNN/conv_1/conv2d/bias"
      }
    }
  }
  attr {
    key: "container"
    value {
      s: ""
    }
  }
  attr {
    key: "dtype"
    value {
      type: DT_FLOAT
    }
  }
  attr {
    key: "shape"
    value {
      shape {
        dim {
          size: 8
        }
      }
    }
  }
  attr {
    key: "shared_name"
    value {
      s: ""
    }
  }
}
node {
  name: "CNN/conv_1/conv2d/bias/Assign"
  op: "Assign"
  input: "CNN/conv_1/conv2d/bias"
  input: "CNN/conv_1/conv2d/bias/Initializer/zeros"
  attr {
    key: "T"
    value {
      type: DT_FLOAT
    }
  }
  attr {
    key: "_class"
    value {
      list {
        s: "loc:@CNN/conv_1/conv2d/bias"
      }
    }
  }
  attr {
    key: "use_locking"
    value {
      b: true
    }
  }
  attr {
    key: "validate_shape"
    value {
      b: true
    }
  }
}
node {
  name: "CNN/conv_1/conv2d/bias/read"
  op: "Identity"
  input: "CNN/conv_1/conv2d/bias"
  attr {
    key: "T"
    value {
      type: DT_FLOAT
    }
  }
  attr {
    key: "_class"
    value {
      list {
        s: "loc:@CNN/conv_1/conv2d/bias"
      }
    }
  }
}
node {
  name: "CNN/conv_1/conv2d/dilation_rate"
  op: "Const"
  attr {
    key: "dtype"
    value {
      type: DT_INT32
    }
  }
  attr {
    key: "value"
    value {
      tensor {
        dtype: DT_INT32
        tensor_shape {
          dim {
            size: 2
          }
        }
        tensor_content: "\001\000\000\000\001\000\000\000"
      }
    }
  }
}
node {
  name: "CNN/conv_1/conv2d/Conv2D"
  op: "Conv2D"
  input: "phase_specs"
  input: "CNN/conv_1/conv2d/kernel/read"
  attr {
    key: "T"
    value {
      type: DT_FLOAT
    }
  }
  attr {
    key: "data_format"
    value {
      s: "NHWC"
    }
  }
  attr {
    key: "dilations"
    value {
      list {
        i: 1
        i: 1
        i: 1
        i: 1
      }
    }
  }
  attr {
    key: "padding"
    value {
      s: "SAME"
    }
  }
  attr {
    key: "strides"
    value {
      list {
        i: 1
        i: 1
        i: 1
        i: 1
      }
    }
  }
  attr {
    key: "use_cudnn_on_gpu"
    value {
      b: true
    }
  }
}
node {
  name: "CNN/conv_1/conv2d/BiasAdd"
  op: "BiasAdd"
  input: "CNN/conv_1/conv2d/Conv2D"
  input: "CNN/conv_1/conv2d/bias/read"
  attr {
    key: "T"
    value {
      type: DT_FLOAT
    }
  }
  attr {
    key: "data_format"
    value {
      s: "NHWC"
    }
  }
}
node {
  name: "CNN/conv_1/LeakyRelu"
  op: "LeakyRelu"
  input: "CNN/conv_1/conv2d/BiasAdd"
  attr {
    key: "T"
    value {
      type: DT_FLOAT
    }
  }
  attr {
    key: "alpha"
    value {
      f: 0.20000000298023224
    }
  }
}
node {
  name: "CNN/conv_2/conv2d/kernel/Initializer/random_uniform/shape"
  op: "Const"
  attr {
    key: "_class"
    value {
      list {
        s: "loc:@CNN/conv_2/conv2d/kernel"
      }
    }
  }
  attr {
    key: "dtype"
    value {
      type: DT_INT32
    }
  }
  attr {
    key: "value"
    value {
      tensor {
        dtype: DT_INT32
        tensor_shape {
          dim {
            size: 4
          }
        }
        tensor_content: "\001\000\000\000\007\000\000\000\010\000\000\000@\000\000\000"
      }
    }
  }
}
node {
  name: "CNN/conv_2/conv2d/kernel/Initializer/random_uniform/min"
  op: "Const"
  attr {
    key: "_class"
    value {
      list {
        s: "loc:@CNN/conv_2/conv2d/kernel"
      }
    }
  }
  attr {
    key: "dtype"
    value {
      type: DT_FLOAT
    }
  }
  attr {
    key: "value"
    value {
      tensor {
        dtype: DT_FLOAT
        tensor_shape {
        }
        float_val: -0.10910894721746445
      }
    }
  }
}
node {
  name: "CNN/conv_2/conv2d/kernel/Initializer/random_uniform/max"
  op: "Const"
  attr {
    key: "_class"
    value {
      list {
        s: "loc:@CNN/conv_2/conv2d/kernel"
      }
    }
  }
  attr {
    key: "dtype"
    value {
      type: DT_FLOAT
    }
  }
  attr {
    key: "value"
    value {
      tensor {
        dtype: DT_FLOAT
        tensor_shape {
        }
        float_val: 0.10910894721746445
      }
    }
  }
}
node {
  name: "CNN/conv_2/conv2d/kernel/Initializer/random_uniform/RandomUniform"
  op: "RandomUniform"
  input: "CNN/conv_2/conv2d/kernel/Initializer/random_uniform/shape"
  attr {
    key: "T"
    value {
      type: DT_INT32
    }
  }
  attr {
    key: "_class"
    value {
      list {
        s: "loc:@CNN/conv_2/conv2d/kernel"
      }
    }
  }
  attr {
    key: "dtype"
    value {
      type: DT_FLOAT
    }
  }
  attr {
    key: "seed"
    value {
      i: 0
    }
  }
  attr {
    key: "seed2"
    value {
      i: 0
    }
  }
}
node {
  name: "CNN/conv_2/conv2d/kernel/Initializer/random_uniform/sub"
  op: "Sub"
  input: "CNN/conv_2/conv2d/kernel/Initializer/random_uniform/max"
  input: "CNN/conv_2/conv2d/kernel/Initializer/random_uniform/min"
  attr {
    key: "T"
    value {
      type: DT_FLOAT
    }
  }
  attr {
    key: "_class"
    value {
      list {
        s: "loc:@CNN/conv_2/conv2d/kernel"
      }
    }
  }
}
node {
  name: "CNN/conv_2/conv2d/kernel/Initializer/random_uniform/mul"
  op: "Mul"
  input: "CNN/conv_2/conv2d/kernel/Initializer/random_uniform/RandomUniform"
  input: "CNN/conv_2/conv2d/kernel/Initializer/random_uniform/sub"
  attr {
    key: "T"
    value {
      type: DT_FLOAT
    }
  }
  attr {
    key: "_class"
    value {
      list {
        s: "loc:@CNN/conv_2/conv2d/kernel"
      }
    }
  }
}
node {
  name: "CNN/conv_2/conv2d/kernel/Initializer/random_uniform"
  op: "Add"
  input: "CNN/conv_2/conv2d/kernel/Initializer/random_uniform/mul"
  input: "CNN/conv_2/conv2d/kernel/Initializer/random_uniform/min"
  attr {
    key: "T"
    value {
      type: DT_FLOAT
    }
  }
  attr {
    key: "_class"
    value {
      list {
        s: "loc:@CNN/conv_2/conv2d/kernel"
      }
    }
  }
}
node {
  name: "CNN/conv_2/conv2d/kernel"
  op: "VariableV2"
  attr {
    key: "_class"
    value {
      list {
        s: "loc:@CNN/conv_2/conv2d/kernel"
      }
    }
  }
  attr {
    key: "container"
    value {
      s: ""
    }
  }
  attr {
    key: "dtype"
    value {
      type: DT_FLOAT
    }
  }
  attr {
    key: "shape"
    value {
      shape {
        dim {
          size: 1
        }
        dim {
          size: 7
        }
        dim {
          size: 8
        }
        dim {
          size: 64
        }
      }
    }
  }
  attr {
    key: "shared_name"
    value {
      s: ""
    }
  }
}
node {
  name: "CNN/conv_2/conv2d/kernel/Assign"
  op: "Assign"
  input: "CNN/conv_2/conv2d/kernel"
  input: "CNN/conv_2/conv2d/kernel/Initializer/random_uniform"
  attr {
    key: "T"
    value {
      type: DT_FLOAT
    }
  }
  attr {
    key: "_class"
    value {
      list {
        s: "loc:@CNN/conv_2/conv2d/kernel"
      }
    }
  }
  attr {
    key: "use_locking"
    value {
      b: true
    }
  }
  attr {
    key: "validate_shape"
    value {
      b: true
    }
  }
}
node {
  name: "CNN/conv_2/conv2d/kernel/read"
  op: "Identity"
  input: "CNN/conv_2/conv2d/kernel"
  attr {
    key: "T"
    value {
      type: DT_FLOAT
    }
  }
  attr {
    key: "_class"
    value {
      list {
        s: "loc:@CNN/conv_2/conv2d/kernel"
      }
    }
  }
}
node {
  name: "CNN/conv_2/conv2d/bias/Initializer/zeros"
  op: "Const"
  attr {
    key: "_class"
    value {
      list {
        s: "loc:@CNN/conv_2/conv2d/bias"
      }
    }
  }
  attr {
    key: "dtype"
    value {
      type: DT_FLOAT
    }
  }
  attr {
    key: "value"
    value {
      tensor {
        dtype: DT_FLOAT
        tensor_shape {
          dim {
            size: 64
          }
        }
        float_val: 0.0
      }
    }
  }
}
node {
  name: "CNN/conv_2/conv2d/bias"
  op: "VariableV2"
  attr {
    key: "_class"
    value {
      list {
        s: "loc:@CNN/conv_2/conv2d/bias"
      }
    }
  }
  attr {
    key: "container"
    value {
      s: ""
    }
  }
  attr {
    key: "dtype"
    value {
      type: DT_FLOAT
    }
  }
  attr {
    key: "shape"
    value {
      shape {
        dim {
          size: 64
        }
      }
    }
  }
  attr {
    key: "shared_name"
    value {
      s: ""
    }
  }
}
node {
  name: "CNN/conv_2/conv2d/bias/Assign"
  op: "Assign"
  input: "CNN/conv_2/conv2d/bias"
  input: "CNN/conv_2/conv2d/bias/Initializer/zeros"
  attr {
    key: "T"
    value {
      type: DT_FLOAT
    }
  }
  attr {
    key: "_class"
    value {
      list {
        s: "loc:@CNN/conv_2/conv2d/bias"
      }
    }
  }
  attr {
    key: "use_locking"
    value {
      b: true
    }
  }
  attr {
    key: "validate_shape"
    value {
      b: true
    }
  }
}
node {
  name: "CNN/conv_2/conv2d/bias/read"
  op: "Identity"
  input: "CNN/conv_2/conv2d/bias"
  attr {
    key: "T"
    value {
      type: DT_FLOAT
    }
  }
  attr {
    key: "_class"
    value {
      list {
        s: "loc:@CNN/conv_2/conv2d/bias"
      }
    }
  }
}
node {
  name: "CNN/conv_2/conv2d/dilation_rate"
  op: "Const"
  attr {
    key: "dtype"
    value {
      type: DT_INT32
    }
  }
  attr {
    key: "value"
    value {
      tensor {
        dtype: DT_INT32
        tensor_shape {
          dim {
            size: 2
          }
        }
        tensor_content: "\001\000\000\000\002\000\000\000"
      }
    }
  }
}
node {
  name: "CNN/conv_2/conv2d/filter_shape"
  op: "Const"
  attr {
    key: "dtype"
    value {
      type: DT_INT32
    }
  }
  attr {
    key: "value"
    value {
      tensor {
        dtype: DT_INT32
        tensor_shape {
          dim {
            size: 4
          }
        }
        tensor_content: "\001\000\000\000\007\000\000\000\010\000\000\000@\000\000\000"
      }
    }
  }
}
node {
  name: "CNN/conv_2/conv2d/stack"
  op: "Const"
  attr {
    key: "dtype"
    value {
      type: DT_INT32
    }
  }
  attr {
    key: "value"
    value {
      tensor {
        dtype: DT_INT32
        tensor_shape {
          dim {
            size: 2
          }
          dim {
            size: 2
          }
        }
        tensor_content: "\000\000\000\000\000\000\000\000\006\000\000\000\006\000\000\000"
      }
    }
  }
}
node {
  name: "CNN/conv_2/conv2d/required_space_to_batch_paddings/input_shape"
  op: "Const"
  attr {
    key: "dtype"
    value {
      type: DT_INT32
    }
  }
  attr {
    key: "value"
    value {
      tensor {
        dtype: DT_INT32
        tensor_shape {
          dim {
            size: 2
          }
        }
        tensor_content: "\t\000\000\000\201\000\000\000"
      }
    }
  }
}
node {
  name: "CNN/conv_2/conv2d/required_space_to_batch_paddings/paddings"
  op: "Const"
  attr {
    key: "dtype"
    value {
      type: DT_INT32
    }
  }
  attr {
    key: "value"
    value {
      tensor {
        dtype: DT_INT32
        tensor_shape {
          dim {
            size: 2
          }
          dim {
            size: 2
          }
        }
        tensor_content: "\000\000\000\000\000\000\000\000\006\000\000\000\007\000\000\000"
      }
    }
  }
}
node {
  name: "CNN/conv_2/conv2d/required_space_to_batch_paddings/crops"
  op: "Const"
  attr {
    key: "dtype"
    value {
      type: DT_INT32
    }
  }
  attr {
    key: "value"
    value {
      tensor {
        dtype: DT_INT32
        tensor_shape {
          dim {
            size: 2
          }
          dim {
            size: 2
          }
        }
        tensor_content: "\000\000\000\000\000\000\000\000\000\000\000\000\001\000\000\000"
      }
    }
  }
}
node {
  name: "CNN/conv_2/conv2d/SpaceToBatchND/block_shape"
  op: "Const"
  attr {
    key: "dtype"
    value {
      type: DT_INT32
    }
  }
  attr {
    key: "value"
    value {
      tensor {
        dtype: DT_INT32
        tensor_shape {
          dim {
            size: 2
          }
        }
        tensor_content: "\001\000\000\000\002\000\000\000"
      }
    }
  }
}
node {
  name: "CNN/conv_2/conv2d/SpaceToBatchND/paddings"
  op: "Const"
  attr {
    key: "dtype"
    value {
      type: DT_INT32
    }
  }
  attr {
    key: "value"
    value {
      tensor {
        dtype: DT_INT32
        tensor_shape {
          dim {
            size: 2
          }
          dim {
            size: 2
          }
        }
        tensor_content: "\000\000\000\000\000\000\000\000\006\000\000\000\007\000\000\000"
      }
    }
  }
}
node {
  name: "CNN/conv_2/conv2d/SpaceToBatchND"
  op: "SpaceToBatchND"
  input: "CNN/conv_1/LeakyRelu"
  input: "CNN/conv_2/conv2d/SpaceToBatchND/block_shape"
  input: "CNN/conv_2/conv2d/SpaceToBatchND/paddings"
  attr {
    key: "T"
    value {
      type: DT_FLOAT
    }
  }
  attr {
    key: "Tblock_shape"
    value {
      type: DT_INT32
    }
  }
  attr {
    key: "Tpaddings"
    value {
      type: DT_INT32
    }
  }
}
node {
  name: "CNN/conv_2/conv2d/Conv2D"
  op: "Conv2D"
  input: "CNN/conv_2/conv2d/SpaceToBatchND"
  input: "CNN/conv_2/conv2d/kernel/read"
  attr {
    key: "T"
    value {
      type: DT_FLOAT
    }
  }
  attr {
    key: "data_format"
    value {
      s: "NHWC"
    }
  }
  attr {
    key: "dilations"
    value {
      list {
        i: 1
        i: 1
        i: 1
        i: 1
      }
    }
  }
  attr {
    key: "padding"
    value {
      s: "VALID"
    }
  }
  attr {
    key: "strides"
    value {
      list {
        i: 1
        i: 1
        i: 1
        i: 1
      }
    }
  }
  attr {
    key: "use_cudnn_on_gpu"
    value {
      b: true
    }
  }
}
node {
  name: "CNN/conv_2/conv2d/BatchToSpaceND/block_shape"
  op: "Const"
  attr {
    key: "dtype"
    value {
      type: DT_INT32
    }
  }
  attr {
    key: "value"
    value {
      tensor {
        dtype: DT_INT32
        tensor_shape {
          dim {
            size: 2
          }
        }
        tensor_content: "\001\000\000\000\002\000\000\000"
      }
    }
  }
}
node {
  name: "CNN/conv_2/conv2d/BatchToSpaceND/crops"
  op: "Const"
  attr {
    key: "dtype"
    value {
      type: DT_INT32
    }
  }
  attr {
    key: "value"
    value {
      tensor {
        dtype: DT_INT32
        tensor_shape {
          dim {
            size: 2
          }
          dim {
            size: 2
          }
        }
        tensor_content: "\000\000\000\000\000\000\000\000\000\000\000\000\001\000\000\000"
      }
    }
  }
}
node {
  name: "CNN/conv_2/conv2d/BatchToSpaceND"
  op: "BatchToSpaceND"
  input: "CNN/conv_2/conv2d/Conv2D"
  input: "CNN/conv_2/conv2d/BatchToSpaceND/block_shape"
  input: "CNN/conv_2/conv2d/BatchToSpaceND/crops"
  attr {
    key: "T"
    value {
      type: DT_FLOAT
    }
  }
  attr {
    key: "Tblock_shape"
    value {
      type: DT_INT32
    }
  }
  attr {
    key: "Tcrops"
    value {
      type: DT_INT32
    }
  }
}
node {
  name: "CNN/conv_2/conv2d/BiasAdd"
  op: "BiasAdd"
  input: "CNN/conv_2/conv2d/BatchToSpaceND"
  input: "CNN/conv_2/conv2d/bias/read"
  attr {
    key: "T"
    value {
      type: DT_FLOAT
    }
  }
  attr {
    key: "data_format"
    value {
      s: "NHWC"
    }
  }
}
node {
  name: "CNN/conv_2/Relu"
  op: "Relu"
  input: "CNN/conv_2/conv2d/BiasAdd"
  attr {
    key: "T"
    value {
      type: DT_FLOAT
    }
  }
}
node {
  name: "CNN/conv_3/conv2d/kernel/Initializer/random_uniform/shape"
  op: "Const"
  attr {
    key: "_class"
    value {
      list {
        s: "loc:@CNN/conv_3/conv2d/kernel"
      }
    }
  }
  attr {
    key: "dtype"
    value {
      type: DT_INT32
    }
  }
  attr {
    key: "value"
    value {
      tensor {
        dtype: DT_INT32
        tensor_shape {
          dim {
            size: 4
          }
        }
        tensor_content: "\001\000\000\000\007\000\000\000@\000\000\000\200\000\000\000"
      }
    }
  }
}
node {
  name: "CNN/conv_3/conv2d/kernel/Initializer/random_uniform/min"
  op: "Const"
  attr {
    key: "_class"
    value {
      list {
        s: "loc:@CNN/conv_3/conv2d/kernel"
      }
    }
  }
  attr {
    key: "dtype"
    value {
      type: DT_FLOAT
    }
  }
  attr {
    key: "value"
    value {
      tensor {
        dtype: DT_FLOAT
        tensor_shape {
        }
        float_val: -0.06681530922651291
      }
    }
  }
}
node {
  name: "CNN/conv_3/conv2d/kernel/Initializer/random_uniform/max"
  op: "Const"
  attr {
    key: "_class"
    value {
      list {
        s: "loc:@CNN/conv_3/conv2d/kernel"
      }
    }
  }
  attr {
    key: "dtype"
    value {
      type: DT_FLOAT
    }
  }
  attr {
    key: "value"
    value {
      tensor {
        dtype: DT_FLOAT
        tensor_shape {
        }
        float_val: 0.06681530922651291
      }
    }
  }
}
node {
  name: "CNN/conv_3/conv2d/kernel/Initializer/random_uniform/RandomUniform"
  op: "RandomUniform"
  input: "CNN/conv_3/conv2d/kernel/Initializer/random_uniform/shape"
  attr {
    key: "T"
    value {
      type: DT_INT32
    }
  }
  attr {
    key: "_class"
    value {
      list {
        s: "loc:@CNN/conv_3/conv2d/kernel"
      }
    }
  }
  attr {
    key: "dtype"
    value {
      type: DT_FLOAT
    }
  }
  attr {
    key: "seed"
    value {
      i: 0
    }
  }
  attr {
    key: "seed2"
    value {
      i: 0
    }
  }
}
node {
  name: "CNN/conv_3/conv2d/kernel/Initializer/random_uniform/sub"
  op: "Sub"
  input: "CNN/conv_3/conv2d/kernel/Initializer/random_uniform/max"
  input: "CNN/conv_3/conv2d/kernel/Initializer/random_uniform/min"
  attr {
    key: "T"
    value {
      type: DT_FLOAT
    }
  }
  attr {
    key: "_class"
    value {
      list {
        s: "loc:@CNN/conv_3/conv2d/kernel"
      }
    }
  }
}
node {
  name: "CNN/conv_3/conv2d/kernel/Initializer/random_uniform/mul"
  op: "Mul"
  input: "CNN/conv_3/conv2d/kernel/Initializer/random_uniform/RandomUniform"
  input: "CNN/conv_3/conv2d/kernel/Initializer/random_uniform/sub"
  attr {
    key: "T"
    value {
      type: DT_FLOAT
    }
  }
  attr {
    key: "_class"
    value {
      list {
        s: "loc:@CNN/conv_3/conv2d/kernel"
      }
    }
  }
}
node {
  name: "CNN/conv_3/conv2d/kernel/Initializer/random_uniform"
  op: "Add"
  input: "CNN/conv_3/conv2d/kernel/Initializer/random_uniform/mul"
  input: "CNN/conv_3/conv2d/kernel/Initializer/random_uniform/min"
  attr {
    key: "T"
    value {
      type: DT_FLOAT
    }
  }
  attr {
    key: "_class"
    value {
      list {
        s: "loc:@CNN/conv_3/conv2d/kernel"
      }
    }
  }
}
node {
  name: "CNN/conv_3/conv2d/kernel"
  op: "VariableV2"
  attr {
    key: "_class"
    value {
      list {
        s: "loc:@CNN/conv_3/conv2d/kernel"
      }
    }
  }
  attr {
    key: "container"
    value {
      s: ""
    }
  }
  attr {
    key: "dtype"
    value {
      type: DT_FLOAT
    }
  }
  attr {
    key: "shape"
    value {
      shape {
        dim {
          size: 1
        }
        dim {
          size: 7
        }
        dim {
          size: 64
        }
        dim {
          size: 128
        }
      }
    }
  }
  attr {
    key: "shared_name"
    value {
      s: ""
    }
  }
}
node {
  name: "CNN/conv_3/conv2d/kernel/Assign"
  op: "Assign"
  input: "CNN/conv_3/conv2d/kernel"
  input: "CNN/conv_3/conv2d/kernel/Initializer/random_uniform"
  attr {
    key: "T"
    value {
      type: DT_FLOAT
    }
  }
  attr {
    key: "_class"
    value {
      list {
        s: "loc:@CNN/conv_3/conv2d/kernel"
      }
    }
  }
  attr {
    key: "use_locking"
    value {
      b: true
    }
  }
  attr {
    key: "validate_shape"
    value {
      b: true
    }
  }
}
node {
  name: "CNN/conv_3/conv2d/kernel/read"
  op: "Identity"
  input: "CNN/conv_3/conv2d/kernel"
  attr {
    key: "T"
    value {
      type: DT_FLOAT
    }
  }
  attr {
    key: "_class"
    value {
      list {
        s: "loc:@CNN/conv_3/conv2d/kernel"
      }
    }
  }
}
node {
  name: "CNN/conv_3/conv2d/bias/Initializer/zeros"
  op: "Const"
  attr {
    key: "_class"
    value {
      list {
        s: "loc:@CNN/conv_3/conv2d/bias"
      }
    }
  }
  attr {
    key: "dtype"
    value {
      type: DT_FLOAT
    }
  }
  attr {
    key: "value"
    value {
      tensor {
        dtype: DT_FLOAT
        tensor_shape {
          dim {
            size: 128
          }
        }
        float_val: 0.0
      }
    }
  }
}
node {
  name: "CNN/conv_3/conv2d/bias"
  op: "VariableV2"
  attr {
    key: "_class"
    value {
      list {
        s: "loc:@CNN/conv_3/conv2d/bias"
      }
    }
  }
  attr {
    key: "container"
    value {
      s: ""
    }
  }
  attr {
    key: "dtype"
    value {
      type: DT_FLOAT
    }
  }
  attr {
    key: "shape"
    value {
      shape {
        dim {
          size: 128
        }
      }
    }
  }
  attr {
    key: "shared_name"
    value {
      s: ""
    }
  }
}
node {
  name: "CNN/conv_3/conv2d/bias/Assign"
  op: "Assign"
  input: "CNN/conv_3/conv2d/bias"
  input: "CNN/conv_3/conv2d/bias/Initializer/zeros"
  attr {
    key: "T"
    value {
      type: DT_FLOAT
    }
  }
  attr {
    key: "_class"
    value {
      list {
        s: "loc:@CNN/conv_3/conv2d/bias"
      }
    }
  }
  attr {
    key: "use_locking"
    value {
      b: true
    }
  }
  attr {
    key: "validate_shape"
    value {
      b: true
    }
  }
}
node {
  name: "CNN/conv_3/conv2d/bias/read"
  op: "Identity"
  input: "CNN/conv_3/conv2d/bias"
  attr {
    key: "T"
    value {
      type: DT_FLOAT
    }
  }
  attr {
    key: "_class"
    value {
      list {
        s: "loc:@CNN/conv_3/conv2d/bias"
      }
    }
  }
}
node {
  name: "CNN/conv_3/conv2d/dilation_rate"
  op: "Const"
  attr {
    key: "dtype"
    value {
      type: DT_INT32
    }
  }
  attr {
    key: "value"
    value {
      tensor {
        dtype: DT_INT32
        tensor_shape {
          dim {
            size: 2
          }
        }
        tensor_content: "\001\000\000\000\004\000\000\000"
      }
    }
  }
}
node {
  name: "CNN/conv_3/conv2d/filter_shape"
  op: "Const"
  attr {
    key: "dtype"
    value {
      type: DT_INT32
    }
  }
  attr {
    key: "value"
    value {
      tensor {
        dtype: DT_INT32
        tensor_shape {
          dim {
            size: 4
          }
        }
        tensor_content: "\001\000\000\000\007\000\000\000@\000\000\000\200\000\000\000"
      }
    }
  }
}
node {
  name: "CNN/conv_3/conv2d/stack"
  op: "Const"
  attr {
    key: "dtype"
    value {
      type: DT_INT32
    }
  }
  attr {
    key: "value"
    value {
      tensor {
        dtype: DT_INT32
        tensor_shape {
          dim {
            size: 2
          }
          dim {
            size: 2
          }
        }
        tensor_content: "\000\000\000\000\000\000\000\000\014\000\000\000\014\000\000\000"
      }
    }
  }
}
node {
  name: "CNN/conv_3/conv2d/required_space_to_batch_paddings/input_shape"
  op: "Const"
  attr {
    key: "dtype"
    value {
      type: DT_INT32
    }
  }
  attr {
    key: "value"
    value {
      tensor {
        dtype: DT_INT32
        tensor_shape {
          dim {
            size: 2
          }
        }
        tensor_content: "\t\000\000\000\201\000\000\000"
      }
    }
  }
}
node {
  name: "CNN/conv_3/conv2d/required_space_to_batch_paddings/paddings"
  op: "Const"
  attr {
    key: "dtype"
    value {
      type: DT_INT32
    }
  }
  attr {
    key: "value"
    value {
      tensor {
        dtype: DT_INT32
        tensor_shape {
          dim {
            size: 2
          }
          dim {
            size: 2
          }
        }
        tensor_content: "\000\000\000\000\000\000\000\000\014\000\000\000\017\000\000\000"
      }
    }
  }
}
node {
  name: "CNN/conv_3/conv2d/required_space_to_batch_paddings/crops"
  op: "Const"
  attr {
    key: "dtype"
    value {
      type: DT_INT32
    }
  }
  attr {
    key: "value"
    value {
      tensor {
        dtype: DT_INT32
        tensor_shape {
          dim {
            size: 2
          }
          dim {
            size: 2
          }
        }
        tensor_content: "\000\000\000\000\000\000\000\000\000\000\000\000\003\000\000\000"
      }
    }
  }
}
node {
  name: "CNN/conv_3/conv2d/SpaceToBatchND/block_shape"
  op: "Const"
  attr {
    key: "dtype"
    value {
      type: DT_INT32
    }
  }
  attr {
    key: "value"
    value {
      tensor {
        dtype: DT_INT32
        tensor_shape {
          dim {
            size: 2
          }
        }
        tensor_content: "\001\000\000\000\004\000\000\000"
      }
    }
  }
}
node {
  name: "CNN/conv_3/conv2d/SpaceToBatchND/paddings"
  op: "Const"
  attr {
    key: "dtype"
    value {
      type: DT_INT32
    }
  }
  attr {
    key: "value"
    value {
      tensor {
        dtype: DT_INT32
        tensor_shape {
          dim {
            size: 2
          }
          dim {
            size: 2
          }
        }
        tensor_content: "\000\000\000\000\000\000\000\000\014\000\000\000\017\000\000\000"
      }
    }
  }
}
node {
  name: "CNN/conv_3/conv2d/SpaceToBatchND"
  op: "SpaceToBatchND"
  input: "CNN/conv_2/Relu"
  input: "CNN/conv_3/conv2d/SpaceToBatchND/block_shape"
  input: "CNN/conv_3/conv2d/SpaceToBatchND/paddings"
  attr {
    key: "T"
    value {
      type: DT_FLOAT
    }
  }
  attr {
    key: "Tblock_shape"
    value {
      type: DT_INT32
    }
  }
  attr {
    key: "Tpaddings"
    value {
      type: DT_INT32
    }
  }
}
node {
  name: "CNN/conv_3/conv2d/Conv2D"
  op: "Conv2D"
  input: "CNN/conv_3/conv2d/SpaceToBatchND"
  input: "CNN/conv_3/conv2d/kernel/read"
  attr {
    key: "T"
    value {
      type: DT_FLOAT
    }
  }
  attr {
    key: "data_format"
    value {
      s: "NHWC"
    }
  }
  attr {
    key: "dilations"
    value {
      list {
        i: 1
        i: 1
        i: 1
        i: 1
      }
    }
  }
  attr {
    key: "padding"
    value {
      s: "VALID"
    }
  }
  attr {
    key: "strides"
    value {
      list {
        i: 1
        i: 1
        i: 1
        i: 1
      }
    }
  }
  attr {
    key: "use_cudnn_on_gpu"
    value {
      b: true
    }
  }
}
node {
  name: "CNN/conv_3/conv2d/BatchToSpaceND/block_shape"
  op: "Const"
  attr {
    key: "dtype"
    value {
      type: DT_INT32
    }
  }
  attr {
    key: "value"
    value {
      tensor {
        dtype: DT_INT32
        tensor_shape {
          dim {
            size: 2
          }
        }
        tensor_content: "\001\000\000\000\004\000\000\000"
      }
    }
  }
}
node {
  name: "CNN/conv_3/conv2d/BatchToSpaceND/crops"
  op: "Const"
  attr {
    key: "dtype"
    value {
      type: DT_INT32
    }
  }
  attr {
    key: "value"
    value {
      tensor {
        dtype: DT_INT32
        tensor_shape {
          dim {
            size: 2
          }
          dim {
            size: 2
          }
        }
        tensor_content: "\000\000\000\000\000\000\000\000\000\000\000\000\003\000\000\000"
      }
    }
  }
}
node {
  name: "CNN/conv_3/conv2d/BatchToSpaceND"
  op: "BatchToSpaceND"
  input: "CNN/conv_3/conv2d/Conv2D"
  input: "CNN/conv_3/conv2d/BatchToSpaceND/block_shape"
  input: "CNN/conv_3/conv2d/BatchToSpaceND/crops"
  attr {
    key: "T"
    value {
      type: DT_FLOAT
    }
  }
  attr {
    key: "Tblock_shape"
    value {
      type: DT_INT32
    }
  }
  attr {
    key: "Tcrops"
    value {
      type: DT_INT32
    }
  }
}
node {
  name: "CNN/conv_3/conv2d/BiasAdd"
  op: "BiasAdd"
  input: "CNN/conv_3/conv2d/BatchToSpaceND"
  input: "CNN/conv_3/conv2d/bias/read"
  attr {
    key: "T"
    value {
      type: DT_FLOAT
    }
  }
  attr {
    key: "data_format"
    value {
      s: "NHWC"
    }
  }
}
node {
  name: "CNN/conv_3/Relu"
  op: "Relu"
  input: "CNN/conv_3/conv2d/BiasAdd"
  attr {
    key: "T"
    value {
      type: DT_FLOAT
    }
  }
}
node {
  name: "CNN/reduce_sum/Sum/reduction_indices"
  op: "Const"
  attr {
    key: "dtype"
    value {
      type: DT_INT32
    }
  }
  attr {
    key: "value"
    value {
      tensor {
        dtype: DT_INT32
        tensor_shape {
          dim {
            size: 2
          }
        }
        tensor_content: "\001\000\000\000\002\000\000\000"
      }
    }
  }
}
node {
  name: "CNN/reduce_sum/Sum"
  op: "Sum"
  input: "CNN/conv_3/Relu"
  input: "CNN/reduce_sum/Sum/reduction_indices"
  attr {
    key: "T"
    value {
      type: DT_FLOAT
    }
  }
  attr {
    key: "Tidx"
    value {
      type: DT_INT32
    }
  }
  attr {
    key: "keep_dims"
    value {
      b: false
    }
  }
}
node {
  name: "CNN/reduce_sum/Reshape/shape/1"
  op: "Const"
  attr {
    key: "dtype"
    value {
      type: DT_INT32
    }
  }
  attr {
    key: "value"
    value {
      tensor {
        dtype: DT_INT32
        tensor_shape {
        }
        int_val: 1
      }
    }
  }
}
node {
  name: "CNN/reduce_sum/Reshape/shape/2"
  op: "Const"
  attr {
    key: "dtype"
    value {
      type: DT_INT32
    }
  }
  attr {
    key: "value"
    value {
      tensor {
        dtype: DT_INT32
        tensor_shape {
        }
        int_val: 1
      }
    }
  }
}
node {
  name: "CNN/reduce_sum/Reshape/shape/3"
  op: "Const"
  attr {
    key: "dtype"
    value {
      type: DT_INT32
    }
  }
  attr {
    key: "value"
    value {
      tensor {
        dtype: DT_INT32
        tensor_shape {
        }
        int_val: 128
      }
    }
  }
}
node {
  name: "CNN/reduce_sum/Reshape/shape"
  op: "Pack"
  input: "CNN/strided_slice"
  input: "CNN/reduce_sum/Reshape/shape/1"
  input: "CNN/reduce_sum/Reshape/shape/2"
  input: "CNN/reduce_sum/Reshape/shape/3"
  attr {
    key: "N"
    value {
      i: 4
    }
  }
  attr {
    key: "T"
    value {
      type: DT_INT32
    }
  }
  attr {
    key: "axis"
    value {
      i: 0
    }
  }
}
node {
  name: "CNN/reduce_sum/Reshape"
  op: "Reshape"
  input: "CNN/reduce_sum/Sum"
  input: "CNN/reduce_sum/Reshape/shape"
  attr {
    key: "T"
    value {
      type: DT_FLOAT
    }
  }
  attr {
    key: "Tshape"
    value {
      type: DT_INT32
    }
  }
}
node {
  name: "CNN/1_by_1_conv_1/conv2d/kernel/Initializer/random_uniform/shape"
  op: "Const"
  attr {
    key: "_class"
    value {
      list {
        s: "loc:@CNN/1_by_1_conv_1/conv2d/kernel"
      }
    }
  }
  attr {
    key: "dtype"
    value {
      type: DT_INT32
    }
  }
  attr {
    key: "value"
    value {
      tensor {
        dtype: DT_INT32
        tensor_shape {
          dim {
            size: 4
          }
        }
        tensor_content: "\001\000\000\000\001\000\000\000\200\000\000\000\200\000\000\000"
      }
    }
  }
}
node {
  name: "CNN/1_by_1_conv_1/conv2d/kernel/Initializer/random_uniform/min"
  op: "Const"
  attr {
    key: "_class"
    value {
      list {
        s: "loc:@CNN/1_by_1_conv_1/conv2d/kernel"
      }
    }
  }
  attr {
    key: "dtype"
    value {
      type: DT_FLOAT
    }
  }
  attr {
    key: "value"
    value {
      tensor {
        dtype: DT_FLOAT
        tensor_shape {
        }
        float_val: -0.1530931144952774
      }
    }
  }
}
node {
  name: "CNN/1_by_1_conv_1/conv2d/kernel/Initializer/random_uniform/max"
  op: "Const"
  attr {
    key: "_class"
    value {
      list {
        s: "loc:@CNN/1_by_1_conv_1/conv2d/kernel"
      }
    }
  }
  attr {
    key: "dtype"
    value {
      type: DT_FLOAT
    }
  }
  attr {
    key: "value"
    value {
      tensor {
        dtype: DT_FLOAT
        tensor_shape {
        }
        float_val: 0.1530931144952774
      }
    }
  }
}
node {
  name: "CNN/1_by_1_conv_1/conv2d/kernel/Initializer/random_uniform/RandomUniform"
  op: "RandomUniform"
  input: "CNN/1_by_1_conv_1/conv2d/kernel/Initializer/random_uniform/shape"
  attr {
    key: "T"
    value {
      type: DT_INT32
    }
  }
  attr {
    key: "_class"
    value {
      list {
        s: "loc:@CNN/1_by_1_conv_1/conv2d/kernel"
      }
    }
  }
  attr {
    key: "dtype"
    value {
      type: DT_FLOAT
    }
  }
  attr {
    key: "seed"
    value {
      i: 0
    }
  }
  attr {
    key: "seed2"
    value {
      i: 0
    }
  }
}
node {
  name: "CNN/1_by_1_conv_1/conv2d/kernel/Initializer/random_uniform/sub"
  op: "Sub"
  input: "CNN/1_by_1_conv_1/conv2d/kernel/Initializer/random_uniform/max"
  input: "CNN/1_by_1_conv_1/conv2d/kernel/Initializer/random_uniform/min"
  attr {
    key: "T"
    value {
      type: DT_FLOAT
    }
  }
  attr {
    key: "_class"
    value {
      list {
        s: "loc:@CNN/1_by_1_conv_1/conv2d/kernel"
      }
    }
  }
}
node {
  name: "CNN/1_by_1_conv_1/conv2d/kernel/Initializer/random_uniform/mul"
  op: "Mul"
  input: "CNN/1_by_1_conv_1/conv2d/kernel/Initializer/random_uniform/RandomUniform"
  input: "CNN/1_by_1_conv_1/conv2d/kernel/Initializer/random_uniform/sub"
  attr {
    key: "T"
    value {
      type: DT_FLOAT
    }
  }
  attr {
    key: "_class"
    value {
      list {
        s: "loc:@CNN/1_by_1_conv_1/conv2d/kernel"
      }
    }
  }
}
node {
  name: "CNN/1_by_1_conv_1/conv2d/kernel/Initializer/random_uniform"
  op: "Add"
  input: "CNN/1_by_1_conv_1/conv2d/kernel/Initializer/random_uniform/mul"
  input: "CNN/1_by_1_conv_1/conv2d/kernel/Initializer/random_uniform/min"
  attr {
    key: "T"
    value {
      type: DT_FLOAT
    }
  }
  attr {
    key: "_class"
    value {
      list {
        s: "loc:@CNN/1_by_1_conv_1/conv2d/kernel"
      }
    }
  }
}
node {
  name: "CNN/1_by_1_conv_1/conv2d/kernel"
  op: "VariableV2"
  attr {
    key: "_class"
    value {
      list {
        s: "loc:@CNN/1_by_1_conv_1/conv2d/kernel"
      }
    }
  }
  attr {
    key: "container"
    value {
      s: ""
    }
  }
  attr {
    key: "dtype"
    value {
      type: DT_FLOAT
    }
  }
  attr {
    key: "shape"
    value {
      shape {
        dim {
          size: 1
        }
        dim {
          size: 1
        }
        dim {
          size: 128
        }
        dim {
          size: 128
        }
      }
    }
  }
  attr {
    key: "shared_name"
    value {
      s: ""
    }
  }
}
node {
  name: "CNN/1_by_1_conv_1/conv2d/kernel/Assign"
  op: "Assign"
  input: "CNN/1_by_1_conv_1/conv2d/kernel"
  input: "CNN/1_by_1_conv_1/conv2d/kernel/Initializer/random_uniform"
  attr {
    key: "T"
    value {
      type: DT_FLOAT
    }
  }
  attr {
    key: "_class"
    value {
      list {
        s: "loc:@CNN/1_by_1_conv_1/conv2d/kernel"
      }
    }
  }
  attr {
    key: "use_locking"
    value {
      b: true
    }
  }
  attr {
    key: "validate_shape"
    value {
      b: true
    }
  }
}
node {
  name: "CNN/1_by_1_conv_1/conv2d/kernel/read"
  op: "Identity"
  input: "CNN/1_by_1_conv_1/conv2d/kernel"
  attr {
    key: "T"
    value {
      type: DT_FLOAT
    }
  }
  attr {
    key: "_class"
    value {
      list {
        s: "loc:@CNN/1_by_1_conv_1/conv2d/kernel"
      }
    }
  }
}
node {
  name: "CNN/1_by_1_conv_1/conv2d/bias/Initializer/zeros"
  op: "Const"
  attr {
    key: "_class"
    value {
      list {
        s: "loc:@CNN/1_by_1_conv_1/conv2d/bias"
      }
    }
  }
  attr {
    key: "dtype"
    value {
      type: DT_FLOAT
    }
  }
  attr {
    key: "value"
    value {
      tensor {
        dtype: DT_FLOAT
        tensor_shape {
          dim {
            size: 128
          }
        }
        float_val: 0.0
      }
    }
  }
}
node {
  name: "CNN/1_by_1_conv_1/conv2d/bias"
  op: "VariableV2"
  attr {
    key: "_class"
    value {
      list {
        s: "loc:@CNN/1_by_1_conv_1/conv2d/bias"
      }
    }
  }
  attr {
    key: "container"
    value {
      s: ""
    }
  }
  attr {
    key: "dtype"
    value {
      type: DT_FLOAT
    }
  }
  attr {
    key: "shape"
    value {
      shape {
        dim {
          size: 128
        }
      }
    }
  }
  attr {
    key: "shared_name"
    value {
      s: ""
    }
  }
}
node {
  name: "CNN/1_by_1_conv_1/conv2d/bias/Assign"
  op: "Assign"
  input: "CNN/1_by_1_conv_1/conv2d/bias"
  input: "CNN/1_by_1_conv_1/conv2d/bias/Initializer/zeros"
  attr {
    key: "T"
    value {
      type: DT_FLOAT
    }
  }
  attr {
    key: "_class"
    value {
      list {
        s: "loc:@CNN/1_by_1_conv_1/conv2d/bias"
      }
    }
  }
  attr {
    key: "use_locking"
    value {
      b: true
    }
  }
  attr {
    key: "validate_shape"
    value {
      b: true
    }
  }
}
node {
  name: "CNN/1_by_1_conv_1/conv2d/bias/read"
  op: "Identity"
  input: "CNN/1_by_1_conv_1/conv2d/bias"
  attr {
    key: "T"
    value {
      type: DT_FLOAT
    }
  }
  attr {
    key: "_class"
    value {
      list {
        s: "loc:@CNN/1_by_1_conv_1/conv2d/bias"
      }
    }
  }
}
node {
  name: "CNN/1_by_1_conv_1/conv2d/dilation_rate"
  op: "Const"
  attr {
    key: "dtype"
    value {
      type: DT_INT32
    }
  }
  attr {
    key: "value"
    value {
      tensor {
        dtype: DT_INT32
        tensor_shape {
          dim {
            size: 2
          }
        }
        tensor_content: "\001\000\000\000\001\000\000\000"
      }
    }
  }
}
node {
  name: "CNN/1_by_1_conv_1/conv2d/Conv2D"
  op: "Conv2D"
  input: "CNN/reduce_sum/Reshape"
  input: "CNN/1_by_1_conv_1/conv2d/kernel/read"
  attr {
    key: "T"
    value {
      type: DT_FLOAT
    }
  }
  attr {
    key: "data_format"
    value {
      s: "NHWC"
    }
  }
  attr {
    key: "dilations"
    value {
      list {
        i: 1
        i: 1
        i: 1
        i: 1
      }
    }
  }
  attr {
    key: "padding"
    value {
      s: "SAME"
    }
  }
  attr {
    key: "strides"
    value {
      list {
        i: 1
        i: 1
        i: 1
        i: 1
      }
    }
  }
  attr {
    key: "use_cudnn_on_gpu"
    value {
      b: true
    }
  }
}
node {
  name: "CNN/1_by_1_conv_1/conv2d/BiasAdd"
  op: "BiasAdd"
  input: "CNN/1_by_1_conv_1/conv2d/Conv2D"
  input: "CNN/1_by_1_conv_1/conv2d/bias/read"
  attr {
    key: "T"
    value {
      type: DT_FLOAT
    }
  }
  attr {
    key: "data_format"
    value {
      s: "NHWC"
    }
  }
}
node {
  name: "CNN/1_by_1_conv_1/Relu"
  op: "Relu"
  input: "CNN/1_by_1_conv_1/conv2d/BiasAdd"
  attr {
    key: "T"
    value {
      type: DT_FLOAT
    }
  }
}
node {
  name: "CNN/1_by_1_conv_2/conv2d/kernel/Initializer/random_uniform/shape"
  op: "Const"
  attr {
    key: "_class"
    value {
      list {
        s: "loc:@CNN/1_by_1_conv_2/conv2d/kernel"
      }
    }
  }
  attr {
    key: "dtype"
    value {
      type: DT_INT32
    }
  }
  attr {
    key: "value"
    value {
      tensor {
        dtype: DT_INT32
        tensor_shape {
          dim {
            size: 4
          }
        }
        tensor_content: "\001\000\000\000\001\000\000\000\200\000\000\000D\000\000\000"
      }
    }
  }
}
node {
  name: "CNN/1_by_1_conv_2/conv2d/kernel/Initializer/random_uniform/min"
  op: "Const"
  attr {
    key: "_class"
    value {
      list {
        s: "loc:@CNN/1_by_1_conv_2/conv2d/kernel"
      }
    }
  }
  attr {
    key: "dtype"
    value {
      type: DT_FLOAT
    }
  }
  attr {
    key: "value"
    value {
      tensor {
        dtype: DT_FLOAT
        tensor_shape {
        }
        float_val: -0.1749635487794876
      }
    }
  }
}
node {
  name: "CNN/1_by_1_conv_2/conv2d/kernel/Initializer/random_uniform/max"
  op: "Const"
  attr {
    key: "_class"
    value {
      list {
        s: "loc:@CNN/1_by_1_conv_2/conv2d/kernel"
      }
    }
  }
  attr {
    key: "dtype"
    value {
      type: DT_FLOAT
    }
  }
  attr {
    key: "value"
    value {
      tensor {
        dtype: DT_FLOAT
        tensor_shape {
        }
        float_val: 0.1749635487794876
      }
    }
  }
}
node {
  name: "CNN/1_by_1_conv_2/conv2d/kernel/Initializer/random_uniform/RandomUniform"
  op: "RandomUniform"
  input: "CNN/1_by_1_conv_2/conv2d/kernel/Initializer/random_uniform/shape"
  attr {
    key: "T"
    value {
      type: DT_INT32
    }
  }
  attr {
    key: "_class"
    value {
      list {
        s: "loc:@CNN/1_by_1_conv_2/conv2d/kernel"
      }
    }
  }
  attr {
    key: "dtype"
    value {
      type: DT_FLOAT
    }
  }
  attr {
    key: "seed"
    value {
      i: 0
    }
  }
  attr {
    key: "seed2"
    value {
      i: 0
    }
  }
}
node {
  name: "CNN/1_by_1_conv_2/conv2d/kernel/Initializer/random_uniform/sub"
  op: "Sub"
  input: "CNN/1_by_1_conv_2/conv2d/kernel/Initializer/random_uniform/max"
  input: "CNN/1_by_1_conv_2/conv2d/kernel/Initializer/random_uniform/min"
  attr {
    key: "T"
    value {
      type: DT_FLOAT
    }
  }
  attr {
    key: "_class"
    value {
      list {
        s: "loc:@CNN/1_by_1_conv_2/conv2d/kernel"
      }
    }
  }
}
node {
  name: "CNN/1_by_1_conv_2/conv2d/kernel/Initializer/random_uniform/mul"
  op: "Mul"
  input: "CNN/1_by_1_conv_2/conv2d/kernel/Initializer/random_uniform/RandomUniform"
  input: "CNN/1_by_1_conv_2/conv2d/kernel/Initializer/random_uniform/sub"
  attr {
    key: "T"
    value {
      type: DT_FLOAT
    }
  }
  attr {
    key: "_class"
    value {
      list {
        s: "loc:@CNN/1_by_1_conv_2/conv2d/kernel"
      }
    }
  }
}
node {
  name: "CNN/1_by_1_conv_2/conv2d/kernel/Initializer/random_uniform"
  op: "Add"
  input: "CNN/1_by_1_conv_2/conv2d/kernel/Initializer/random_uniform/mul"
  input: "CNN/1_by_1_conv_2/conv2d/kernel/Initializer/random_uniform/min"
  attr {
    key: "T"
    value {
      type: DT_FLOAT
    }
  }
  attr {
    key: "_class"
    value {
      list {
        s: "loc:@CNN/1_by_1_conv_2/conv2d/kernel"
      }
    }
  }
}
node {
  name: "CNN/1_by_1_conv_2/conv2d/kernel"
  op: "VariableV2"
  attr {
    key: "_class"
    value {
      list {
        s: "loc:@CNN/1_by_1_conv_2/conv2d/kernel"
      }
    }
  }
  attr {
    key: "container"
    value {
      s: ""
    }
  }
  attr {
    key: "dtype"
    value {
      type: DT_FLOAT
    }
  }
  attr {
    key: "shape"
    value {
      shape {
        dim {
          size: 1
        }
        dim {
          size: 1
        }
        dim {
          size: 128
        }
        dim {
          size: 68
        }
      }
    }
  }
  attr {
    key: "shared_name"
    value {
      s: ""
    }
  }
}
node {
  name: "CNN/1_by_1_conv_2/conv2d/kernel/Assign"
  op: "Assign"
  input: "CNN/1_by_1_conv_2/conv2d/kernel"
  input: "CNN/1_by_1_conv_2/conv2d/kernel/Initializer/random_uniform"
  attr {
    key: "T"
    value {
      type: DT_FLOAT
    }
  }
  attr {
    key: "_class"
    value {
      list {
        s: "loc:@CNN/1_by_1_conv_2/conv2d/kernel"
      }
    }
  }
  attr {
    key: "use_locking"
    value {
      b: true
    }
  }
  attr {
    key: "validate_shape"
    value {
      b: true
    }
  }
}
node {
  name: "CNN/1_by_1_conv_2/conv2d/kernel/read"
  op: "Identity"
  input: "CNN/1_by_1_conv_2/conv2d/kernel"
  attr {
    key: "T"
    value {
      type: DT_FLOAT
    }
  }
  attr {
    key: "_class"
    value {
      list {
        s: "loc:@CNN/1_by_1_conv_2/conv2d/kernel"
      }
    }
  }
}
node {
  name: "CNN/1_by_1_conv_2/conv2d/bias/Initializer/zeros"
  op: "Const"
  attr {
    key: "_class"
    value {
      list {
        s: "loc:@CNN/1_by_1_conv_2/conv2d/bias"
      }
    }
  }
  attr {
    key: "dtype"
    value {
      type: DT_FLOAT
    }
  }
  attr {
    key: "value"
    value {
      tensor {
        dtype: DT_FLOAT
        tensor_shape {
          dim {
            size: 68
          }
        }
        float_val: 0.0
      }
    }
  }
}
node {
  name: "CNN/1_by_1_conv_2/conv2d/bias"
  op: "VariableV2"
  attr {
    key: "_class"
    value {
      list {
        s: "loc:@CNN/1_by_1_conv_2/conv2d/bias"
      }
    }
  }
  attr {
    key: "container"
    value {
      s: ""
    }
  }
  attr {
    key: "dtype"
    value {
      type: DT_FLOAT
    }
  }
  attr {
    key: "shape"
    value {
      shape {
        dim {
          size: 68
        }
      }
    }
  }
  attr {
    key: "shared_name"
    value {
      s: ""
    }
  }
}
node {
  name: "CNN/1_by_1_conv_2/conv2d/bias/Assign"
  op: "Assign"
  input: "CNN/1_by_1_conv_2/conv2d/bias"
  input: "CNN/1_by_1_conv_2/conv2d/bias/Initializer/zeros"
  attr {
    key: "T"
    value {
      type: DT_FLOAT
    }
  }
  attr {
    key: "_class"
    value {
      list {
        s: "loc:@CNN/1_by_1_conv_2/conv2d/bias"
      }
    }
  }
  attr {
    key: "use_locking"
    value {
      b: true
    }
  }
  attr {
    key: "validate_shape"
    value {
      b: true
    }
  }
}
node {
  name: "CNN/1_by_1_conv_2/conv2d/bias/read"
  op: "Identity"
  input: "CNN/1_by_1_conv_2/conv2d/bias"
  attr {
    key: "T"
    value {
      type: DT_FLOAT
    }
  }
  attr {
    key: "_class"
    value {
      list {
        s: "loc:@CNN/1_by_1_conv_2/conv2d/bias"
      }
    }
  }
}
node {
  name: "CNN/1_by_1_conv_2/conv2d/dilation_rate"
  op: "Const"
  attr {
    key: "dtype"
    value {
      type: DT_INT32
    }
  }
  attr {
    key: "value"
    value {
      tensor {
        dtype: DT_INT32
        tensor_shape {
          dim {
            size: 2
          }
        }
        tensor_content: "\001\000\000\000\001\000\000\000"
      }
    }
  }
}
node {
  name: "CNN/1_by_1_conv_2/conv2d/Conv2D"
  op: "Conv2D"
  input: "CNN/1_by_1_conv_1/Relu"
  input: "CNN/1_by_1_conv_2/conv2d/kernel/read"
  attr {
    key: "T"
    value {
      type: DT_FLOAT
    }
  }
  attr {
    key: "data_format"
    value {
      s: "NHWC"
    }
  }
  attr {
    key: "dilations"
    value {
      list {
        i: 1
        i: 1
        i: 1
        i: 1
      }
    }
  }
  attr {
    key: "padding"
    value {
      s: "SAME"
    }
  }
  attr {
    key: "strides"
    value {
      list {
        i: 1
        i: 1
        i: 1
        i: 1
      }
    }
  }
  attr {
    key: "use_cudnn_on_gpu"
    value {
      b: true
    }
  }
}
node {
  name: "CNN/1_by_1_conv_2/conv2d/BiasAdd"
  op: "BiasAdd"
  input: "CNN/1_by_1_conv_2/conv2d/Conv2D"
  input: "CNN/1_by_1_conv_2/conv2d/bias/read"
  attr {
    key: "T"
    value {
      type: DT_FLOAT
    }
  }
  attr {
    key: "data_format"
    value {
      s: "NHWC"
    }
  }
}
node {
  name: "CNN/reshape/flatten/Shape"
  op: "Shape"
  input: "CNN/1_by_1_conv_2/conv2d/BiasAdd"
  attr {
    key: "T"
    value {
      type: DT_FLOAT
    }
  }
  attr {
    key: "out_type"
    value {
      type: DT_INT32
    }
  }
}
node {
  name: "CNN/reshape/flatten/strided_slice/stack"
  op: "Const"
  attr {
    key: "dtype"
    value {
      type: DT_INT32
    }
  }
  attr {
    key: "value"
    value {
      tensor {
        dtype: DT_INT32
        tensor_shape {
          dim {
            size: 1
          }
        }
        int_val: 0
      }
    }
  }
}
node {
  name: "CNN/reshape/flatten/strided_slice/stack_1"
  op: "Const"
  attr {
    key: "dtype"
    value {
      type: DT_INT32
    }
  }
  attr {
    key: "value"
    value {
      tensor {
        dtype: DT_INT32
        tensor_shape {
          dim {
            size: 1
          }
        }
        int_val: 1
      }
    }
  }
}
node {
  name: "CNN/reshape/flatten/strided_slice/stack_2"
  op: "Const"
  attr {
    key: "dtype"
    value {
      type: DT_INT32
    }
  }
  attr {
    key: "value"
    value {
      tensor {
        dtype: DT_INT32
        tensor_shape {
          dim {
            size: 1
          }
        }
        int_val: 1
      }
    }
  }
}
node {
  name: "CNN/reshape/flatten/strided_slice"
  op: "StridedSlice"
  input: "CNN/reshape/flatten/Shape"
  input: "CNN/reshape/flatten/strided_slice/stack"
  input: "CNN/reshape/flatten/strided_slice/stack_1"
  input: "CNN/reshape/flatten/strided_slice/stack_2"
  attr {
    key: "Index"
    value {
      type: DT_INT32
    }
  }
  attr {
    key: "T"
    value {
      type: DT_INT32
    }
  }
  attr {
    key: "begin_mask"
    value {
      i: 0
    }
  }
  attr {
    key: "ellipsis_mask"
    value {
      i: 0
    }
  }
  attr {
    key: "end_mask"
    value {
      i: 0
    }
  }
  attr {
    key: "new_axis_mask"
    value {
      i: 0
    }
  }
  attr {
    key: "shrink_axis_mask"
    value {
      i: 1
    }
  }
}
node {
  name: "CNN/reshape/flatten/Reshape/shape/1"
  op: "Const"
  attr {
    key: "dtype"
    value {
      type: DT_INT32
    }
  }
  attr {
    key: "value"
    value {
      tensor {
        dtype: DT_INT32
        tensor_shape {
        }
        int_val: -1
      }
    }
  }
}
node {
  name: "CNN/reshape/flatten/Reshape/shape"
  op: "Pack"
  input: "CNN/reshape/flatten/strided_slice"
  input: "CNN/reshape/flatten/Reshape/shape/1"
  attr {
    key: "N"
    value {
      i: 2
    }
  }
  attr {
    key: "T"
    value {
      type: DT_INT32
    }
  }
  attr {
    key: "axis"
    value {
      i: 0
    }
  }
}
node {
  name: "CNN/reshape/flatten/Reshape"
  op: "Reshape"
  input: "CNN/1_by_1_conv_2/conv2d/BiasAdd"
  input: "CNN/reshape/flatten/Reshape/shape"
  attr {
    key: "T"
    value {
      type: DT_FLOAT
    }
  }
  attr {
    key: "Tshape"
    value {
      type: DT_INT32
    }
  }
}
node {
  name: "softmax_cross_entropy_loss/labels_stop_gradient"
  op: "StopGradient"
  input: "ground_truth_input"
  attr {
    key: "T"
    value {
      type: DT_FLOAT
    }
  }
}
node {
  name: "softmax_cross_entropy_loss/xentropy/Rank"
  op: "Const"
  attr {
    key: "dtype"
    value {
      type: DT_INT32
    }
  }
  attr {
    key: "value"
    value {
      tensor {
        dtype: DT_INT32
        tensor_shape {
        }
        int_val: 2
      }
    }
  }
}
node {
  name: "softmax_cross_entropy_loss/xentropy/Shape"
  op: "Shape"
  input: "CNN/reshape/flatten/Reshape"
  attr {
    key: "T"
    value {
      type: DT_FLOAT
    }
  }
  attr {
    key: "out_type"
    value {
      type: DT_INT32
    }
  }
}
node {
  name: "softmax_cross_entropy_loss/xentropy/Rank_1"
  op: "Const"
  attr {
    key: "dtype"
    value {
      type: DT_INT32
    }
  }
  attr {
    key: "value"
    value {
      tensor {
        dtype: DT_INT32
        tensor_shape {
        }
        int_val: 2
      }
    }
  }
}
node {
  name: "softmax_cross_entropy_loss/xentropy/Shape_1"
  op: "Shape"
  input: "CNN/reshape/flatten/Reshape"
  attr {
    key: "T"
    value {
      type: DT_FLOAT
    }
  }
  attr {
    key: "out_type"
    value {
      type: DT_INT32
    }
  }
}
node {
  name: "softmax_cross_entropy_loss/xentropy/Sub/y"
  op: "Const"
  attr {
    key: "dtype"
    value {
      type: DT_INT32
    }
  }
  attr {
    key: "value"
    value {
      tensor {
        dtype: DT_INT32
        tensor_shape {
        }
        int_val: 1
      }
    }
  }
}
node {
  name: "softmax_cross_entropy_loss/xentropy/Sub"
  op: "Sub"
  input: "softmax_cross_entropy_loss/xentropy/Rank_1"
  input: "softmax_cross_entropy_loss/xentropy/Sub/y"
  attr {
    key: "T"
    value {
      type: DT_INT32
    }
  }
}
node {
  name: "softmax_cross_entropy_loss/xentropy/Slice/begin"
  op: "Pack"
  input: "softmax_cross_entropy_loss/xentropy/Sub"
  attr {
    key: "N"
    value {
      i: 1
    }
  }
  attr {
    key: "T"
    value {
      type: DT_INT32
    }
  }
  attr {
    key: "axis"
    value {
      i: 0
    }
  }
}
node {
  name: "softmax_cross_entropy_loss/xentropy/Slice/size"
  op: "Const"
  attr {
    key: "dtype"
    value {
      type: DT_INT32
    }
  }
  attr {
    key: "value"
    value {
      tensor {
        dtype: DT_INT32
        tensor_shape {
          dim {
            size: 1
          }
        }
        int_val: 1
      }
    }
  }
}
node {
  name: "softmax_cross_entropy_loss/xentropy/Slice"
  op: "Slice"
  input: "softmax_cross_entropy_loss/xentropy/Shape_1"
  input: "softmax_cross_entropy_loss/xentropy/Slice/begin"
  input: "softmax_cross_entropy_loss/xentropy/Slice/size"
  attr {
    key: "Index"
    value {
      type: DT_INT32
    }
  }
  attr {
    key: "T"
    value {
      type: DT_INT32
    }
  }
}
node {
  name: "softmax_cross_entropy_loss/xentropy/concat/values_0"
  op: "Const"
  attr {
    key: "dtype"
    value {
      type: DT_INT32
    }
  }
  attr {
    key: "value"
    value {
      tensor {
        dtype: DT_INT32
        tensor_shape {
          dim {
            size: 1
          }
        }
        int_val: -1
      }
    }
  }
}
node {
  name: "softmax_cross_entropy_loss/xentropy/concat/axis"
  op: "Const"
  attr {
    key: "dtype"
    value {
      type: DT_INT32
    }
  }
  attr {
    key: "value"
    value {
      tensor {
        dtype: DT_INT32
        tensor_shape {
        }
        int_val: 0
      }
    }
  }
}
node {
  name: "softmax_cross_entropy_loss/xentropy/concat"
  op: "ConcatV2"
  input: "softmax_cross_entropy_loss/xentropy/concat/values_0"
  input: "softmax_cross_entropy_loss/xentropy/Slice"
  input: "softmax_cross_entropy_loss/xentropy/concat/axis"
  attr {
    key: "N"
    value {
      i: 2
    }
  }
  attr {
    key: "T"
    value {
      type: DT_INT32
    }
  }
  attr {
    key: "Tidx"
    value {
      type: DT_INT32
    }
  }
}
node {
  name: "softmax_cross_entropy_loss/xentropy/Reshape"
  op: "Reshape"
  input: "CNN/reshape/flatten/Reshape"
  input: "softmax_cross_entropy_loss/xentropy/concat"
  attr {
    key: "T"
    value {
      type: DT_FLOAT
    }
  }
  attr {
    key: "Tshape"
    value {
      type: DT_INT32
    }
  }
}
node {
  name: "softmax_cross_entropy_loss/xentropy/Rank_2"
  op: "Const"
  attr {
    key: "dtype"
    value {
      type: DT_INT32
    }
  }
  attr {
    key: "value"
    value {
      tensor {
        dtype: DT_INT32
        tensor_shape {
        }
        int_val: 2
      }
    }
  }
}
node {
  name: "softmax_cross_entropy_loss/xentropy/Shape_2"
  op: "Shape"
  input: "softmax_cross_entropy_loss/labels_stop_gradient"
  attr {
    key: "T"
    value {
      type: DT_FLOAT
    }
  }
  attr {
    key: "out_type"
    value {
      type: DT_INT32
    }
  }
}
node {
  name: "softmax_cross_entropy_loss/xentropy/Sub_1/y"
  op: "Const"
  attr {
    key: "dtype"
    value {
      type: DT_INT32
    }
  }
  attr {
    key: "value"
    value {
      tensor {
        dtype: DT_INT32
        tensor_shape {
        }
        int_val: 1
      }
    }
  }
}
node {
  name: "softmax_cross_entropy_loss/xentropy/Sub_1"
  op: "Sub"
  input: "softmax_cross_entropy_loss/xentropy/Rank_2"
  input: "softmax_cross_entropy_loss/xentropy/Sub_1/y"
  attr {
    key: "T"
    value {
      type: DT_INT32
    }
  }
}
node {
  name: "softmax_cross_entropy_loss/xentropy/Slice_1/begin"
  op: "Pack"
  input: "softmax_cross_entropy_loss/xentropy/Sub_1"
  attr {
    key: "N"
    value {
      i: 1
    }
  }
  attr {
    key: "T"
    value {
      type: DT_INT32
    }
  }
  attr {
    key: "axis"
    value {
      i: 0
    }
  }
}
node {
  name: "softmax_cross_entropy_loss/xentropy/Slice_1/size"
  op: "Const"
  attr {
    key: "dtype"
    value {
      type: DT_INT32
    }
  }
  attr {
    key: "value"
    value {
      tensor {
        dtype: DT_INT32
        tensor_shape {
          dim {
            size: 1
          }
        }
        int_val: 1
      }
    }
  }
}
node {
  name: "softmax_cross_entropy_loss/xentropy/Slice_1"
  op: "Slice"
  input: "softmax_cross_entropy_loss/xentropy/Shape_2"
  input: "softmax_cross_entropy_loss/xentropy/Slice_1/begin"
  input: "softmax_cross_entropy_loss/xentropy/Slice_1/size"
  attr {
    key: "Index"
    value {
      type: DT_INT32
    }
  }
  attr {
    key: "T"
    value {
      type: DT_INT32
    }
  }
}
node {
  name: "softmax_cross_entropy_loss/xentropy/concat_1/values_0"
  op: "Const"
  attr {
    key: "dtype"
    value {
      type: DT_INT32
    }
  }
  attr {
    key: "value"
    value {
      tensor {
        dtype: DT_INT32
        tensor_shape {
          dim {
            size: 1
          }
        }
        int_val: -1
      }
    }
  }
}
node {
  name: "softmax_cross_entropy_loss/xentropy/concat_1/axis"
  op: "Const"
  attr {
    key: "dtype"
    value {
      type: DT_INT32
    }
  }
  attr {
    key: "value"
    value {
      tensor {
        dtype: DT_INT32
        tensor_shape {
        }
        int_val: 0
      }
    }
  }
}
node {
  name: "softmax_cross_entropy_loss/xentropy/concat_1"
  op: "ConcatV2"
  input: "softmax_cross_entropy_loss/xentropy/concat_1/values_0"
  input: "softmax_cross_entropy_loss/xentropy/Slice_1"
  input: "softmax_cross_entropy_loss/xentropy/concat_1/axis"
  attr {
    key: "N"
    value {
      i: 2
    }
  }
  attr {
    key: "T"
    value {
      type: DT_INT32
    }
  }
  attr {
    key: "Tidx"
    value {
      type: DT_INT32
    }
  }
}
node {
  name: "softmax_cross_entropy_loss/xentropy/Reshape_1"
  op: "Reshape"
  input: "softmax_cross_entropy_loss/labels_stop_gradient"
  input: "softmax_cross_entropy_loss/xentropy/concat_1"
  attr {
    key: "T"
    value {
      type: DT_FLOAT
    }
  }
  attr {
    key: "Tshape"
    value {
      type: DT_INT32
    }
  }
}
node {
  name: "softmax_cross_entropy_loss/xentropy"
  op: "SoftmaxCrossEntropyWithLogits"
  input: "softmax_cross_entropy_loss/xentropy/Reshape"
  input: "softmax_cross_entropy_loss/xentropy/Reshape_1"
  attr {
    key: "T"
    value {
      type: DT_FLOAT
    }
  }
}
node {
  name: "softmax_cross_entropy_loss/xentropy/Sub_2/y"
  op: "Const"
  attr {
    key: "dtype"
    value {
      type: DT_INT32
    }
  }
  attr {
    key: "value"
    value {
      tensor {
        dtype: DT_INT32
        tensor_shape {
        }
        int_val: 1
      }
    }
  }
}
node {
  name: "softmax_cross_entropy_loss/xentropy/Sub_2"
  op: "Sub"
  input: "softmax_cross_entropy_loss/xentropy/Rank"
  input: "softmax_cross_entropy_loss/xentropy/Sub_2/y"
  attr {
    key: "T"
    value {
      type: DT_INT32
    }
  }
}
node {
  name: "softmax_cross_entropy_loss/xentropy/Slice_2/begin"
  op: "Const"
  attr {
    key: "dtype"
    value {
      type: DT_INT32
    }
  }
  attr {
    key: "value"
    value {
      tensor {
        dtype: DT_INT32
        tensor_shape {
          dim {
            size: 1
          }
        }
        int_val: 0
      }
    }
  }
}
node {
  name: "softmax_cross_entropy_loss/xentropy/Slice_2/size"
  op: "Pack"
  input: "softmax_cross_entropy_loss/xentropy/Sub_2"
  attr {
    key: "N"
    value {
      i: 1
    }
  }
  attr {
    key: "T"
    value {
      type: DT_INT32
    }
  }
  attr {
    key: "axis"
    value {
      i: 0
    }
  }
}
node {
  name: "softmax_cross_entropy_loss/xentropy/Slice_2"
  op: "Slice"
  input: "softmax_cross_entropy_loss/xentropy/Shape"
  input: "softmax_cross_entropy_loss/xentropy/Slice_2/begin"
  input: "softmax_cross_entropy_loss/xentropy/Slice_2/size"
  attr {
    key: "Index"
    value {
      type: DT_INT32
    }
  }
  attr {
    key: "T"
    value {
      type: DT_INT32
    }
  }
}
node {
  name: "softmax_cross_entropy_loss/xentropy/Reshape_2"
  op: "Reshape"
  input: "softmax_cross_entropy_loss/xentropy"
  input: "softmax_cross_entropy_loss/xentropy/Slice_2"
  attr {
    key: "T"
    value {
      type: DT_FLOAT
    }
  }
  attr {
    key: "Tshape"
    value {
      type: DT_INT32
    }
  }
}
node {
  name: "softmax_cross_entropy_loss/assert_broadcastable/weights"
  op: "Const"
  attr {
    key: "dtype"
    value {
      type: DT_FLOAT
    }
  }
  attr {
    key: "value"
    value {
      tensor {
        dtype: DT_FLOAT
        tensor_shape {
        }
        float_val: 1.0
      }
    }
  }
}
node {
  name: "softmax_cross_entropy_loss/assert_broadcastable/weights/shape"
  op: "Const"
  attr {
    key: "dtype"
    value {
      type: DT_INT32
    }
  }
  attr {
    key: "value"
    value {
      tensor {
        dtype: DT_INT32
        tensor_shape {
          dim {
          }
        }
      }
    }
  }
}
node {
  name: "softmax_cross_entropy_loss/assert_broadcastable/weights/rank"
  op: "Const"
  attr {
    key: "dtype"
    value {
      type: DT_INT32
    }
  }
  attr {
    key: "value"
    value {
      tensor {
        dtype: DT_INT32
        tensor_shape {
        }
        int_val: 0
      }
    }
  }
}
node {
  name: "softmax_cross_entropy_loss/assert_broadcastable/values/shape"
  op: "Shape"
  input: "softmax_cross_entropy_loss/xentropy/Reshape_2"
  attr {
    key: "T"
    value {
      type: DT_FLOAT
    }
  }
  attr {
    key: "out_type"
    value {
      type: DT_INT32
    }
  }
}
node {
  name: "softmax_cross_entropy_loss/assert_broadcastable/values/rank"
  op: "Const"
  attr {
    key: "dtype"
    value {
      type: DT_INT32
    }
  }
  attr {
    key: "value"
    value {
      tensor {
        dtype: DT_INT32
        tensor_shape {
        }
        int_val: 1
      }
    }
  }
}
node {
  name: "softmax_cross_entropy_loss/assert_broadcastable/static_scalar_check_success"
  op: "NoOp"
}
node {
  name: "softmax_cross_entropy_loss/ToFloat/x"
  op: "Const"
  input: "^softmax_cross_entropy_loss/assert_broadcastable/static_scalar_check_success"
  attr {
    key: "dtype"
    value {
      type: DT_FLOAT
    }
  }
  attr {
    key: "value"
    value {
      tensor {
        dtype: DT_FLOAT
        tensor_shape {
        }
        float_val: 1.0
      }
    }
  }
}
node {
  name: "softmax_cross_entropy_loss/Mul"
  op: "Mul"
  input: "softmax_cross_entropy_loss/xentropy/Reshape_2"
  input: "softmax_cross_entropy_loss/ToFloat/x"
  attr {
    key: "T"
    value {
      type: DT_FLOAT
    }
  }
}
node {
  name: "softmax_cross_entropy_loss/Const"
  op: "Const"
  input: "^softmax_cross_entropy_loss/assert_broadcastable/static_scalar_check_success"
  attr {
    key: "dtype"
    value {
      type: DT_INT32
    }
  }
  attr {
    key: "value"
    value {
      tensor {
        dtype: DT_INT32
        tensor_shape {
          dim {
            size: 1
          }
        }
        int_val: 0
      }
    }
  }
}
node {
  name: "softmax_cross_entropy_loss/Sum"
  op: "Sum"
  input: "softmax_cross_entropy_loss/Mul"
  input: "softmax_cross_entropy_loss/Const"
  attr {
    key: "T"
    value {
      type: DT_FLOAT
    }
  }
  attr {
    key: "Tidx"
    value {
      type: DT_INT32
    }
  }
  attr {
    key: "keep_dims"
    value {
      b: false
    }
  }
}
node {
  name: "softmax_cross_entropy_loss/num_present/Equal/y"
  op: "Const"
  input: "^softmax_cross_entropy_loss/assert_broadcastable/static_scalar_check_success"
  attr {
    key: "dtype"
    value {
      type: DT_FLOAT
    }
  }
  attr {
    key: "value"
    value {
      tensor {
        dtype: DT_FLOAT
        tensor_shape {
        }
        float_val: 0.0
      }
    }
  }
}
node {
  name: "softmax_cross_entropy_loss/num_present/Equal"
  op: "Equal"
  input: "softmax_cross_entropy_loss/ToFloat/x"
  input: "softmax_cross_entropy_loss/num_present/Equal/y"
  attr {
    key: "T"
    value {
      type: DT_FLOAT
    }
  }
}
node {
  name: "softmax_cross_entropy_loss/num_present/zeros_like"
  op: "Const"
  input: "^softmax_cross_entropy_loss/assert_broadcastable/static_scalar_check_success"
  attr {
    key: "dtype"
    value {
      type: DT_FLOAT
    }
  }
  attr {
    key: "value"
    value {
      tensor {
        dtype: DT_FLOAT
        tensor_shape {
        }
        float_val: 0.0
      }
    }
  }
}
node {
  name: "softmax_cross_entropy_loss/num_present/ones_like/Shape"
  op: "Const"
  input: "^softmax_cross_entropy_loss/assert_broadcastable/static_scalar_check_success"
  attr {
    key: "dtype"
    value {
      type: DT_INT32
    }
  }
  attr {
    key: "value"
    value {
      tensor {
        dtype: DT_INT32
        tensor_shape {
          dim {
          }
        }
      }
    }
  }
}
node {
  name: "softmax_cross_entropy_loss/num_present/ones_like/Const"
  op: "Const"
  input: "^softmax_cross_entropy_loss/assert_broadcastable/static_scalar_check_success"
  attr {
    key: "dtype"
    value {
      type: DT_FLOAT
    }
  }
  attr {
    key: "value"
    value {
      tensor {
        dtype: DT_FLOAT
        tensor_shape {
        }
        float_val: 1.0
      }
    }
  }
}
node {
  name: "softmax_cross_entropy_loss/num_present/ones_like"
  op: "Fill"
  input: "softmax_cross_entropy_loss/num_present/ones_like/Shape"
  input: "softmax_cross_entropy_loss/num_present/ones_like/Const"
  attr {
    key: "T"
    value {
      type: DT_FLOAT
    }
  }
  attr {
    key: "index_type"
    value {
      type: DT_INT32
    }
  }
}
node {
  name: "softmax_cross_entropy_loss/num_present/Select"
  op: "Select"
  input: "softmax_cross_entropy_loss/num_present/Equal"
  input: "softmax_cross_entropy_loss/num_present/zeros_like"
  input: "softmax_cross_entropy_loss/num_present/ones_like"
  attr {
    key: "T"
    value {
      type: DT_FLOAT
    }
  }
}
node {
  name: "softmax_cross_entropy_loss/num_present/broadcast_weights/assert_broadcastable/weights/shape"
  op: "Const"
  input: "^softmax_cross_entropy_loss/assert_broadcastable/static_scalar_check_success"
  attr {
    key: "dtype"
    value {
      type: DT_INT32
    }
  }
  attr {
    key: "value"
    value {
      tensor {
        dtype: DT_INT32
        tensor_shape {
          dim {
          }
        }
      }
    }
  }
}
node {
  name: "softmax_cross_entropy_loss/num_present/broadcast_weights/assert_broadcastable/weights/rank"
  op: "Const"
  input: "^softmax_cross_entropy_loss/assert_broadcastable/static_scalar_check_success"
  attr {
    key: "dtype"
    value {
      type: DT_INT32
    }
  }
  attr {
    key: "value"
    value {
      tensor {
        dtype: DT_INT32
        tensor_shape {
        }
        int_val: 0
      }
    }
  }
}
node {
  name: "softmax_cross_entropy_loss/num_present/broadcast_weights/assert_broadcastable/values/shape"
  op: "Shape"
  input: "softmax_cross_entropy_loss/xentropy/Reshape_2"
  input: "^softmax_cross_entropy_loss/assert_broadcastable/static_scalar_check_success"
  attr {
    key: "T"
    value {
      type: DT_FLOAT
    }
  }
  attr {
    key: "out_type"
    value {
      type: DT_INT32
    }
  }
}
node {
  name: "softmax_cross_entropy_loss/num_present/broadcast_weights/assert_broadcastable/values/rank"
  op: "Const"
  input: "^softmax_cross_entropy_loss/assert_broadcastable/static_scalar_check_success"
  attr {
    key: "dtype"
    value {
      type: DT_INT32
    }
  }
  attr {
    key: "value"
    value {
      tensor {
        dtype: DT_INT32
        tensor_shape {
        }
        int_val: 1
      }
    }
  }
}
node {
  name: "softmax_cross_entropy_loss/num_present/broadcast_weights/assert_broadcastable/static_scalar_check_success"
  op: "NoOp"
  input: "^softmax_cross_entropy_loss/assert_broadcastable/static_scalar_check_success"
}
node {
  name: "softmax_cross_entropy_loss/num_present/broadcast_weights/ones_like/Shape"
  op: "Shape"
  input: "softmax_cross_entropy_loss/xentropy/Reshape_2"
  input: "^softmax_cross_entropy_loss/assert_broadcastable/static_scalar_check_success"
  input: "^softmax_cross_entropy_loss/num_present/broadcast_weights/assert_broadcastable/static_scalar_check_success"
  attr {
    key: "T"
    value {
      type: DT_FLOAT
    }
  }
  attr {
    key: "out_type"
    value {
      type: DT_INT32
    }
  }
}
node {
  name: "softmax_cross_entropy_loss/num_present/broadcast_weights/ones_like/Const"
  op: "Const"
  input: "^softmax_cross_entropy_loss/assert_broadcastable/static_scalar_check_success"
  input: "^softmax_cross_entropy_loss/num_present/broadcast_weights/assert_broadcastable/static_scalar_check_success"
  attr {
    key: "dtype"
    value {
      type: DT_FLOAT
    }
  }
  attr {
    key: "value"
    value {
      tensor {
        dtype: DT_FLOAT
        tensor_shape {
        }
        float_val: 1.0
      }
    }
  }
}
node {
  name: "softmax_cross_entropy_loss/num_present/broadcast_weights/ones_like"
  op: "Fill"
  input: "softmax_cross_entropy_loss/num_present/broadcast_weights/ones_like/Shape"
  input: "softmax_cross_entropy_loss/num_present/broadcast_weights/ones_like/Const"
  attr {
    key: "T"
    value {
      type: DT_FLOAT
    }
  }
  attr {
    key: "index_type"
    value {
      type: DT_INT32
    }
  }
}
node {
  name: "softmax_cross_entropy_loss/num_present/broadcast_weights"
  op: "Mul"
  input: "softmax_cross_entropy_loss/num_present/Select"
  input: "softmax_cross_entropy_loss/num_present/broadcast_weights/ones_like"
  attr {
    key: "T"
    value {
      type: DT_FLOAT
    }
  }
}
node {
  name: "softmax_cross_entropy_loss/num_present/Const"
  op: "Const"
  input: "^softmax_cross_entropy_loss/assert_broadcastable/static_scalar_check_success"
  attr {
    key: "dtype"
    value {
      type: DT_INT32
    }
  }
  attr {
    key: "value"
    value {
      tensor {
        dtype: DT_INT32
        tensor_shape {
          dim {
            size: 1
          }
        }
        int_val: 0
      }
    }
  }
}
node {
  name: "softmax_cross_entropy_loss/num_present"
  op: "Sum"
  input: "softmax_cross_entropy_loss/num_present/broadcast_weights"
  input: "softmax_cross_entropy_loss/num_present/Const"
  attr {
    key: "T"
    value {
      type: DT_FLOAT
    }
  }
  attr {
    key: "Tidx"
    value {
      type: DT_INT32
    }
  }
  attr {
    key: "keep_dims"
    value {
      b: false
    }
  }
}
node {
  name: "softmax_cross_entropy_loss/Const_1"
  op: "Const"
  input: "^softmax_cross_entropy_loss/assert_broadcastable/static_scalar_check_success"
  attr {
    key: "dtype"
    value {
      type: DT_INT32
    }
  }
  attr {
    key: "value"
    value {
      tensor {
        dtype: DT_INT32
        tensor_shape {
          dim {
          }
        }
      }
    }
  }
}
node {
  name: "softmax_cross_entropy_loss/Sum_1"
  op: "Sum"
  input: "softmax_cross_entropy_loss/Sum"
  input: "softmax_cross_entropy_loss/Const_1"
  attr {
    key: "T"
    value {
      type: DT_FLOAT
    }
  }
  attr {
    key: "Tidx"
    value {
      type: DT_INT32
    }
  }
  attr {
    key: "keep_dims"
    value {
      b: false
    }
  }
}
node {
  name: "softmax_cross_entropy_loss/value"
  op: "DivNoNan"
  input: "softmax_cross_entropy_loss/Sum_1"
  input: "softmax_cross_entropy_loss/num_present"
  attr {
    key: "T"
    value {
      type: DT_FLOAT
    }
  }
}
node {
  name: "Const"
  op: "Const"
  attr {
    key: "dtype"
    value {
      type: DT_INT32
    }
  }
  attr {
    key: "value"
    value {
      tensor {
        dtype: DT_INT32
        tensor_shape {
          dim {
          }
        }
      }
    }
  }
}
node {
  name: "Mean"
  op: "Mean"
  input: "softmax_cross_entropy_loss/value"
  input: "Const"
  attr {
    key: "T"
    value {
      type: DT_FLOAT
    }
  }
  attr {
    key: "Tidx"
    value {
      type: DT_INT32
    }
  }
  attr {
    key: "keep_dims"
    value {
      b: false
    }
  }
}
node {
  name: "ArgMax/dimension"
  op: "Const"
  attr {
    key: "dtype"
    value {
      type: DT_INT32
    }
  }
  attr {
    key: "value"
    value {
      tensor {
        dtype: DT_INT32
        tensor_shape {
        }
        int_val: 1
      }
    }
  }
}
node {
  name: "ArgMax"
  op: "ArgMax"
  input: "ground_truth_input"
  input: "ArgMax/dimension"
  attr {
    key: "T"
    value {
      type: DT_FLOAT
    }
  }
  attr {
    key: "Tidx"
    value {
      type: DT_INT32
    }
  }
  attr {
    key: "output_type"
    value {
      type: DT_INT64
    }
  }
}
node {
  name: "ArgMax_1/dimension"
  op: "Const"
  attr {
    key: "dtype"
    value {
      type: DT_INT32
    }
  }
  attr {
    key: "value"
    value {
      tensor {
        dtype: DT_INT32
        tensor_shape {
        }
        int_val: 1
      }
    }
  }
}
node {
  name: "ArgMax_1"
  op: "ArgMax"
  input: "CNN/reshape/flatten/Reshape"
  input: "ArgMax_1/dimension"
  attr {
    key: "T"
    value {
      type: DT_FLOAT
    }
  }
  attr {
    key: "Tidx"
    value {
      type: DT_INT32
    }
  }
  attr {
    key: "output_type"
    value {
      type: DT_INT64
    }
  }
}
node {
  name: "Equal"
  op: "Equal"
  input: "ArgMax_1"
  input: "ArgMax"
  attr {
    key: "T"
    value {
      type: DT_INT64
    }
  }
}
node {
  name: "ToFloat"
  op: "Cast"
  input: "Equal"
  attr {
    key: "DstT"
    value {
      type: DT_FLOAT
    }
  }
  attr {
    key: "SrcT"
    value {
      type: DT_BOOL
    }
  }
  attr {
    key: "Truncate"
    value {
      b: false
    }
  }
}
node {
  name: "accuracy/total/Initializer/zeros"
  op: "Const"
  attr {
    key: "_class"
    value {
      list {
        s: "loc:@accuracy/total"
      }
    }
  }
  attr {
    key: "dtype"
    value {
      type: DT_FLOAT
    }
  }
  attr {
    key: "value"
    value {
      tensor {
        dtype: DT_FLOAT
        tensor_shape {
        }
        float_val: 0.0
      }
    }
  }
}
node {
  name: "accuracy/total"
  op: "VariableV2"
  attr {
    key: "_class"
    value {
      list {
        s: "loc:@accuracy/total"
      }
    }
  }
  attr {
    key: "container"
    value {
      s: ""
    }
  }
  attr {
    key: "dtype"
    value {
      type: DT_FLOAT
    }
  }
  attr {
    key: "shape"
    value {
      shape {
      }
    }
  }
  attr {
    key: "shared_name"
    value {
      s: ""
    }
  }
}
node {
  name: "accuracy/total/Assign"
  op: "Assign"
  input: "accuracy/total"
  input: "accuracy/total/Initializer/zeros"
  attr {
    key: "T"
    value {
      type: DT_FLOAT
    }
  }
  attr {
    key: "_class"
    value {
      list {
        s: "loc:@accuracy/total"
      }
    }
  }
  attr {
    key: "use_locking"
    value {
      b: true
    }
  }
  attr {
    key: "validate_shape"
    value {
      b: true
    }
  }
}
node {
  name: "accuracy/total/read"
  op: "Identity"
  input: "accuracy/total"
  attr {
    key: "T"
    value {
      type: DT_FLOAT
    }
  }
  attr {
    key: "_class"
    value {
      list {
        s: "loc:@accuracy/total"
      }
    }
  }
}
node {
  name: "accuracy/count/Initializer/zeros"
  op: "Const"
  attr {
    key: "_class"
    value {
      list {
        s: "loc:@accuracy/count"
      }
    }
  }
  attr {
    key: "dtype"
    value {
      type: DT_FLOAT
    }
  }
  attr {
    key: "value"
    value {
      tensor {
        dtype: DT_FLOAT
        tensor_shape {
        }
        float_val: 0.0
      }
    }
  }
}
node {
  name: "accuracy/count"
  op: "VariableV2"
  attr {
    key: "_class"
    value {
      list {
        s: "loc:@accuracy/count"
      }
    }
  }
  attr {
    key: "container"
    value {
      s: ""
    }
  }
  attr {
    key: "dtype"
    value {
      type: DT_FLOAT
    }
  }
  attr {
    key: "shape"
    value {
      shape {
      }
    }
  }
  attr {
    key: "shared_name"
    value {
      s: ""
    }
  }
}
node {
  name: "accuracy/count/Assign"
  op: "Assign"
  input: "accuracy/count"
  input: "accuracy/count/Initializer/zeros"
  attr {
    key: "T"
    value {
      type: DT_FLOAT
    }
  }
  attr {
    key: "_class"
    value {
      list {
        s: "loc:@accuracy/count"
      }
    }
  }
  attr {
    key: "use_locking"
    value {
      b: true
    }
  }
  attr {
    key: "validate_shape"
    value {
      b: true
    }
  }
}
node {
  name: "accuracy/count/read"
  op: "Identity"
  input: "accuracy/count"
  attr {
    key: "T"
    value {
      type: DT_FLOAT
    }
  }
  attr {
    key: "_class"
    value {
      list {
        s: "loc:@accuracy/count"
      }
    }
  }
}
node {
  name: "accuracy/Size"
  op: "Size"
  input: "ToFloat"
  attr {
    key: "T"
    value {
      type: DT_FLOAT
    }
  }
  attr {
    key: "out_type"
    value {
      type: DT_INT32
    }
  }
}
node {
  name: "accuracy/ToFloat"
  op: "Cast"
  input: "accuracy/Size"
  attr {
    key: "DstT"
    value {
      type: DT_FLOAT
    }
  }
  attr {
    key: "SrcT"
    value {
      type: DT_INT32
    }
  }
  attr {
    key: "Truncate"
    value {
      b: false
    }
  }
}
node {
  name: "accuracy/Const"
  op: "Const"
  attr {
    key: "dtype"
    value {
      type: DT_INT32
    }
  }
  attr {
    key: "value"
    value {
      tensor {
        dtype: DT_INT32
        tensor_shape {
          dim {
            size: 1
          }
        }
        int_val: 0
      }
    }
  }
}
node {
  name: "accuracy/Sum"
  op: "Sum"
  input: "ToFloat"
  input: "accuracy/Const"
  attr {
    key: "T"
    value {
      type: DT_FLOAT
    }
  }
  attr {
    key: "Tidx"
    value {
      type: DT_INT32
    }
  }
  attr {
    key: "keep_dims"
    value {
      b: false
    }
  }
}
node {
  name: "accuracy/AssignAdd"
  op: "AssignAdd"
  input: "accuracy/total"
  input: "accuracy/Sum"
  attr {
    key: "T"
    value {
      type: DT_FLOAT
    }
  }
  attr {
    key: "_class"
    value {
      list {
        s: "loc:@accuracy/total"
      }
    }
  }
  attr {
    key: "use_locking"
    value {
      b: false
    }
  }
}
node {
  name: "accuracy/AssignAdd_1"
  op: "AssignAdd"
  input: "accuracy/count"
  input: "accuracy/ToFloat"
  input: "^ToFloat"
  attr {
    key: "T"
    value {
      type: DT_FLOAT
    }
  }
  attr {
    key: "_class"
    value {
      list {
        s: "loc:@accuracy/count"
      }
    }
  }
  attr {
    key: "use_locking"
    value {
      b: false
    }
  }
}
node {
  name: "accuracy/Maximum/y"
  op: "Const"
  attr {
    key: "dtype"
    value {
      type: DT_FLOAT
    }
  }
  attr {
    key: "value"
    value {
      tensor {
        dtype: DT_FLOAT
        tensor_shape {
        }
        float_val: 0.0
      }
    }
  }
}
node {
  name: "accuracy/Maximum"
  op: "Maximum"
  input: "accuracy/count/read"
  input: "accuracy/Maximum/y"
  attr {
    key: "T"
    value {
      type: DT_FLOAT
    }
  }
}
node {
  name: "accuracy/value"
  op: "DivNoNan"
  input: "accuracy/total/read"
  input: "accuracy/Maximum"
  attr {
    key: "T"
    value {
      type: DT_FLOAT
    }
  }
}
node {
  name: "accuracy/Maximum_1/y"
  op: "Const"
  attr {
    key: "dtype"
    value {
      type: DT_FLOAT
    }
  }
  attr {
    key: "value"
    value {
      tensor {
        dtype: DT_FLOAT
        tensor_shape {
        }
        float_val: 0.0
      }
    }
  }
}
node {
  name: "accuracy/Maximum_1"
  op: "Maximum"
  input: "accuracy/AssignAdd_1"
  input: "accuracy/Maximum_1/y"
  attr {
    key: "T"
    value {
      type: DT_FLOAT
    }
  }
}
node {
  name: "accuracy/update_op"
  op: "DivNoNan"
  input: "accuracy/AssignAdd"
  input: "accuracy/Maximum_1"
  attr {
    key: "T"
    value {
      type: DT_FLOAT
    }
  }
}
node {
  name: "ArgMax_2/dimension"
  op: "Const"
  attr {
    key: "dtype"
    value {
      type: DT_INT32
    }
  }
  attr {
    key: "value"
    value {
      tensor {
        dtype: DT_INT32
        tensor_shape {
        }
        int_val: 1
      }
    }
  }
}
node {
  name: "ArgMax_2"
  op: "ArgMax"
  input: "ground_truth_input"
  input: "ArgMax_2/dimension"
  attr {
    key: "T"
    value {
      type: DT_FLOAT
    }
  }
  attr {
    key: "Tidx"
    value {
      type: DT_INT32
    }
  }
  attr {
    key: "output_type"
    value {
      type: DT_INT64
    }
  }
}
node {
  name: "ArgMax_3/dimension"
  op: "Const"
  attr {
    key: "dtype"
    value {
      type: DT_INT32
    }
  }
  attr {
    key: "value"
    value {
      tensor {
        dtype: DT_INT32
        tensor_shape {
        }
        int_val: 1
      }
    }
  }
}
node {
  name: "ArgMax_3"
  op: "ArgMax"
  input: "CNN/reshape/flatten/Reshape"
  input: "ArgMax_3/dimension"
  attr {
    key: "T"
    value {
      type: DT_FLOAT
    }
  }
  attr {
    key: "Tidx"
    value {
      type: DT_INT32
    }
  }
  attr {
    key: "output_type"
    value {
      type: DT_INT64
    }
  }
}
node {
  name: "mean_accuracy/total/Initializer/zeros"
  op: "Const"
  attr {
    key: "_class"
    value {
      list {
        s: "loc:@mean_accuracy/total"
      }
    }
  }
  attr {
    key: "dtype"
    value {
      type: DT_FLOAT
    }
  }
  attr {
    key: "value"
    value {
      tensor {
        dtype: DT_FLOAT
        tensor_shape {
          dim {
            size: 68
          }
        }
        float_val: 0.0
      }
    }
  }
}
node {
  name: "mean_accuracy/total"
  op: "VariableV2"
  attr {
    key: "_class"
    value {
      list {
        s: "loc:@mean_accuracy/total"
      }
    }
  }
  attr {
    key: "container"
    value {
      s: ""
    }
  }
  attr {
    key: "dtype"
    value {
      type: DT_FLOAT
    }
  }
  attr {
    key: "shape"
    value {
      shape {
        dim {
          size: 68
        }
      }
    }
  }
  attr {
    key: "shared_name"
    value {
      s: ""
    }
  }
}
node {
  name: "mean_accuracy/total/Assign"
  op: "Assign"
  input: "mean_accuracy/total"
  input: "mean_accuracy/total/Initializer/zeros"
  attr {
    key: "T"
    value {
      type: DT_FLOAT
    }
  }
  attr {
    key: "_class"
    value {
      list {
        s: "loc:@mean_accuracy/total"
      }
    }
  }
  attr {
    key: "use_locking"
    value {
      b: true
    }
  }
  attr {
    key: "validate_shape"
    value {
      b: true
    }
  }
}
node {
  name: "mean_accuracy/total/read"
  op: "Identity"
  input: "mean_accuracy/total"
  attr {
    key: "T"
    value {
      type: DT_FLOAT
    }
  }
  attr {
    key: "_class"
    value {
      list {
        s: "loc:@mean_accuracy/total"
      }
    }
  }
}
node {
  name: "mean_accuracy/count/Initializer/zeros"
  op: "Const"
  attr {
    key: "_class"
    value {
      list {
        s: "loc:@mean_accuracy/count"
      }
    }
  }
  attr {
    key: "dtype"
    value {
      type: DT_FLOAT
    }
  }
  attr {
    key: "value"
    value {
      tensor {
        dtype: DT_FLOAT
        tensor_shape {
          dim {
            size: 68
          }
        }
        float_val: 0.0
      }
    }
  }
}
node {
  name: "mean_accuracy/count"
  op: "VariableV2"
  attr {
    key: "_class"
    value {
      list {
        s: "loc:@mean_accuracy/count"
      }
    }
  }
  attr {
    key: "container"
    value {
      s: ""
    }
  }
  attr {
    key: "dtype"
    value {
      type: DT_FLOAT
    }
  }
  attr {
    key: "shape"
    value {
      shape {
        dim {
          size: 68
        }
      }
    }
  }
  attr {
    key: "shared_name"
    value {
      s: ""
    }
  }
}
node {
  name: "mean_accuracy/count/Assign"
  op: "Assign"
  input: "mean_accuracy/count"
  input: "mean_accuracy/count/Initializer/zeros"
  attr {
    key: "T"
    value {
      type: DT_FLOAT
    }
  }
  attr {
    key: "_class"
    value {
      list {
        s: "loc:@mean_accuracy/count"
      }
    }
  }
  attr {
    key: "use_locking"
    value {
      b: true
    }
  }
  attr {
    key: "validate_shape"
    value {
      b: true
    }
  }
}
node {
  name: "mean_accuracy/count/read"
  op: "Identity"
  input: "mean_accuracy/count"
  attr {
    key: "T"
    value {
      type: DT_FLOAT
    }
  }
  attr {
    key: "_class"
    value {
      list {
        s: "loc:@mean_accuracy/count"
      }
    }
  }
}
node {
  name: "mean_accuracy/Size"
  op: "Size"
  input: "ArgMax_2"
  attr {
    key: "T"
    value {
      type: DT_INT64
    }
  }
  attr {
    key: "out_type"
    value {
      type: DT_INT32
    }
  }
}
node {
  name: "mean_accuracy/ones/Less/y"
  op: "Const"
  attr {
    key: "dtype"
    value {
      type: DT_INT32
    }
  }
  attr {
    key: "value"
    value {
      tensor {
        dtype: DT_INT32
        tensor_shape {
        }
        int_val: 1000
      }
    }
  }
}
node {
  name: "mean_accuracy/ones/Less"
  op: "Less"
  input: "mean_accuracy/Size"
  input: "mean_accuracy/ones/Less/y"
  attr {
    key: "T"
    value {
      type: DT_INT32
    }
  }
}
node {
  name: "mean_accuracy/ones/packed"
  op: "Pack"
  input: "mean_accuracy/Size"
  attr {
    key: "N"
    value {
      i: 1
    }
  }
  attr {
    key: "T"
    value {
      type: DT_INT32
    }
  }
  attr {
    key: "axis"
    value {
      i: 0
    }
  }
}
node {
  name: "mean_accuracy/ones/Const"
  op: "Const"
  attr {
    key: "dtype"
    value {
      type: DT_FLOAT
    }
  }
  attr {
    key: "value"
    value {
      tensor {
        dtype: DT_FLOAT
        tensor_shape {
        }
        float_val: 1.0
      }
    }
  }
}
node {
  name: "mean_accuracy/ones"
  op: "Fill"
  input: "mean_accuracy/ones/packed"
  input: "mean_accuracy/ones/Const"
  attr {
    key: "T"
    value {
      type: DT_FLOAT
    }
  }
  attr {
    key: "index_type"
    value {
      type: DT_INT32
    }
  }
}
node {
  name: "mean_accuracy/Equal"
  op: "Equal"
  input: "ArgMax_3"
  input: "ArgMax_2"
  attr {
    key: "T"
    value {
      type: DT_INT64
    }
  }
}
node {
  name: "mean_accuracy/ToFloat"
  op: "Cast"
  input: "mean_accuracy/Equal"
  attr {
    key: "DstT"
    value {
      type: DT_FLOAT
    }
  }
  attr {
    key: "SrcT"
    value {
      type: DT_BOOL
    }
  }
  attr {
    key: "Truncate"
    value {
      b: false
    }
  }
}
node {
  name: "mean_accuracy/ScatterAdd"
  op: "ScatterAdd"
  input: "mean_accuracy/total"
  input: "ArgMax_2"
  input: "mean_accuracy/ones"
  attr {
    key: "T"
    value {
      type: DT_FLOAT
    }
  }
  attr {
    key: "Tindices"
    value {
      type: DT_INT64
    }
  }
  attr {
    key: "_class"
    value {
      list {
        s: "loc:@mean_accuracy/total"
      }
    }
  }
  attr {
    key: "use_locking"
    value {
      b: false
    }
  }
}
node {
  name: "mean_accuracy/ScatterAdd_1"
  op: "ScatterAdd"
  input: "mean_accuracy/count"
  input: "ArgMax_2"
  input: "mean_accuracy/ToFloat"
  attr {
    key: "T"
    value {
      type: DT_FLOAT
    }
  }
  attr {
    key: "Tindices"
    value {
      type: DT_INT64
    }
  }
  attr {
    key: "_class"
    value {
      list {
        s: "loc:@mean_accuracy/count"
      }
    }
  }
  attr {
    key: "use_locking"
    value {
      b: false
    }
  }
}
node {
  name: "mean_accuracy/Maximum/y"
  op: "Const"
  attr {
    key: "dtype"
    value {
      type: DT_FLOAT
    }
  }
  attr {
    key: "value"
    value {
      tensor {
        dtype: DT_FLOAT
        tensor_shape {
        }
        float_val: 0.0
      }
    }
  }
}
node {
  name: "mean_accuracy/Maximum"
  op: "Maximum"
  input: "mean_accuracy/total/read"
  input: "mean_accuracy/Maximum/y"
  attr {
    key: "T"
    value {
      type: DT_FLOAT
    }
  }
}
node {
  name: "mean_accuracy/div_no_nan"
  op: "DivNoNan"
  input: "mean_accuracy/count/read"
  input: "mean_accuracy/Maximum"
  attr {
    key: "T"
    value {
      type: DT_FLOAT
    }
  }
}
node {
  name: "mean_accuracy/Const"
  op: "Const"
  attr {
    key: "dtype"
    value {
      type: DT_INT32
    }
  }
  attr {
    key: "value"
    value {
      tensor {
        dtype: DT_INT32
        tensor_shape {
          dim {
            size: 1
          }
        }
        int_val: 0
      }
    }
  }
}
node {
  name: "mean_accuracy/mean_accuracy"
  op: "Mean"
  input: "mean_accuracy/div_no_nan"
  input: "mean_accuracy/Const"
  attr {
    key: "T"
    value {
      type: DT_FLOAT
    }
  }
  attr {
    key: "Tidx"
    value {
      type: DT_INT32
    }
  }
  attr {
    key: "keep_dims"
    value {
      b: false
    }
  }
}
node {
  name: "mean_accuracy/Maximum_1/y"
  op: "Const"
  attr {
    key: "dtype"
    value {
      type: DT_FLOAT
    }
  }
  attr {
    key: "value"
    value {
      tensor {
        dtype: DT_FLOAT
        tensor_shape {
        }
        float_val: 0.0
      }
    }
  }
}
node {
  name: "mean_accuracy/Maximum_1"
  op: "Maximum"
  input: "mean_accuracy/ScatterAdd"
  input: "mean_accuracy/Maximum_1/y"
  attr {
    key: "T"
    value {
      type: DT_FLOAT
    }
  }
}
node {
  name: "mean_accuracy/update_op"
  op: "DivNoNan"
  input: "mean_accuracy/ScatterAdd_1"
  input: "mean_accuracy/Maximum_1"
  attr {
    key: "T"
    value {
      type: DT_FLOAT
    }
  }
}
node {
  name: "cross_entropy/tags"
  op: "Const"
  attr {
    key: "dtype"
    value {
      type: DT_STRING
    }
  }
  attr {
    key: "value"
    value {
      tensor {
        dtype: DT_STRING
        tensor_shape {
        }
        string_val: "cross_entropy"
      }
    }
  }
}
node {
  name: "cross_entropy"
  op: "ScalarSummary"
  input: "cross_entropy/tags"
  input: "Mean"
  attr {
    key: "T"
    value {
      type: DT_FLOAT
    }
  }
}
node {
  name: "class_accuracy/tags"
  op: "Const"
  attr {
    key: "dtype"
    value {
      type: DT_STRING
    }
  }
  attr {
    key: "value"
    value {
      tensor {
        dtype: DT_STRING
        tensor_shape {
        }
        string_val: "class_accuracy"
      }
    }
  }
}
node {
  name: "class_accuracy"
  op: "ScalarSummary"
  input: "class_accuracy/tags"
  input: "accuracy/update_op"
  attr {
    key: "T"
    value {
      type: DT_FLOAT
    }
  }
}
node {
  name: "per_class_accuracy/tag"
  op: "Const"
  attr {
    key: "dtype"
    value {
      type: DT_STRING
    }
  }
  attr {
    key: "value"
    value {
      tensor {
        dtype: DT_STRING
        tensor_shape {
        }
        string_val: "per_class_accuracy"
      }
    }
  }
}
node {
  name: "per_class_accuracy"
  op: "HistogramSummary"
  input: "per_class_accuracy/tag"
  input: "mean_accuracy/update_op"
  attr {
    key: "T"
    value {
      type: DT_FLOAT
    }
  }
}
node {
  name: "global_step/Initializer/zeros"
  op: "Const"
  attr {
    key: "_class"
    value {
      list {
        s: "loc:@global_step"
      }
    }
  }
  attr {
    key: "dtype"
    value {
      type: DT_INT64
    }
  }
  attr {
    key: "value"
    value {
      tensor {
        dtype: DT_INT64
        tensor_shape {
        }
        int64_val: 0
      }
    }
  }
}
node {
  name: "global_step"
  op: "VariableV2"
  attr {
    key: "_class"
    value {
      list {
        s: "loc:@global_step"
      }
    }
  }
  attr {
    key: "container"
    value {
      s: ""
    }
  }
  attr {
    key: "dtype"
    value {
      type: DT_INT64
    }
  }
  attr {
    key: "shape"
    value {
      shape {
      }
    }
  }
  attr {
    key: "shared_name"
    value {
      s: ""
    }
  }
}
node {
  name: "global_step/Assign"
  op: "Assign"
  input: "global_step"
  input: "global_step/Initializer/zeros"
  attr {
    key: "T"
    value {
      type: DT_INT64
    }
  }
  attr {
    key: "_class"
    value {
      list {
        s: "loc:@global_step"
      }
    }
  }
  attr {
    key: "use_locking"
    value {
      b: true
    }
  }
  attr {
    key: "validate_shape"
    value {
      b: true
    }
  }
}
node {
  name: "global_step/read"
  op: "Identity"
  input: "global_step"
  attr {
    key: "T"
    value {
      type: DT_INT64
    }
  }
  attr {
    key: "_class"
    value {
      list {
        s: "loc:@global_step"
      }
    }
  }
}
node {
  name: "train/gradients/Shape"
  op: "Const"
  attr {
    key: "dtype"
    value {
      type: DT_INT32
    }
  }
  attr {
    key: "value"
    value {
      tensor {
        dtype: DT_INT32
        tensor_shape {
          dim {
          }
        }
      }
    }
  }
}
node {
  name: "train/gradients/grad_ys_0"
  op: "Const"
  attr {
    key: "dtype"
    value {
      type: DT_FLOAT
    }
  }
  attr {
    key: "value"
    value {
      tensor {
        dtype: DT_FLOAT
        tensor_shape {
        }
        float_val: 1.0
      }
    }
  }
}
node {
  name: "train/gradients/Fill"
  op: "Fill"
  input: "train/gradients/Shape"
  input: "train/gradients/grad_ys_0"
  attr {
    key: "T"
    value {
      type: DT_FLOAT
    }
  }
  attr {
    key: "index_type"
    value {
      type: DT_INT32
    }
  }
}
node {
  name: "train/gradients/softmax_cross_entropy_loss/value_grad/Shape"
  op: "Const"
  attr {
    key: "dtype"
    value {
      type: DT_INT32
    }
  }
  attr {
    key: "value"
    value {
      tensor {
        dtype: DT_INT32
        tensor_shape {
          dim {
          }
        }
      }
    }
  }
}
node {
  name: "train/gradients/softmax_cross_entropy_loss/value_grad/Shape_1"
  op: "Const"
  attr {
    key: "dtype"
    value {
      type: DT_INT32
    }
  }
  attr {
    key: "value"
    value {
      tensor {
        dtype: DT_INT32
        tensor_shape {
          dim {
          }
        }
      }
    }
  }
}
node {
  name: "train/gradients/softmax_cross_entropy_loss/value_grad/BroadcastGradientArgs"
  op: "BroadcastGradientArgs"
  input: "train/gradients/softmax_cross_entropy_loss/value_grad/Shape"
  input: "train/gradients/softmax_cross_entropy_loss/value_grad/Shape_1"
  attr {
    key: "T"
    value {
      type: DT_INT32
    }
  }
}
node {
  name: "train/gradients/softmax_cross_entropy_loss/value_grad/div_no_nan"
  op: "DivNoNan"
  input: "train/gradients/Fill"
  input: "softmax_cross_entropy_loss/num_present"
  attr {
    key: "T"
    value {
      type: DT_FLOAT
    }
  }
}
node {
  name: "train/gradients/softmax_cross_entropy_loss/value_grad/Sum"
  op: "Sum"
  input: "train/gradients/softmax_cross_entropy_loss/value_grad/div_no_nan"
  input: "train/gradients/softmax_cross_entropy_loss/value_grad/BroadcastGradientArgs"
  attr {
    key: "T"
    value {
      type: DT_FLOAT
    }
  }
  attr {
    key: "Tidx"
    value {
      type: DT_INT32
    }
  }
  attr {
    key: "keep_dims"
    value {
      b: false
    }
  }
}
node {
  name: "train/gradients/softmax_cross_entropy_loss/value_grad/Reshape"
  op: "Reshape"
  input: "train/gradients/softmax_cross_entropy_loss/value_grad/Sum"
  input: "train/gradients/softmax_cross_entropy_loss/value_grad/Shape"
  attr {
    key: "T"
    value {
      type: DT_FLOAT
    }
  }
  attr {
    key: "Tshape"
    value {
      type: DT_INT32
    }
  }
}
node {
  name: "train/gradients/softmax_cross_entropy_loss/value_grad/Neg"
  op: "Neg"
  input: "softmax_cross_entropy_loss/Sum_1"
  attr {
    key: "T"
    value {
      type: DT_FLOAT
    }
  }
}
node {
  name: "train/gradients/softmax_cross_entropy_loss/value_grad/div_no_nan_1"
  op: "DivNoNan"
  input: "train/gradients/softmax_cross_entropy_loss/value_grad/Neg"
  input: "softmax_cross_entropy_loss/num_present"
  attr {
    key: "T"
    value {
      type: DT_FLOAT
    }
  }
}
node {
  name: "train/gradients/softmax_cross_entropy_loss/value_grad/div_no_nan_2"
  op: "DivNoNan"
  input: "train/gradients/softmax_cross_entropy_loss/value_grad/div_no_nan_1"
  input: "softmax_cross_entropy_loss/num_present"
  attr {
    key: "T"
    value {
      type: DT_FLOAT
    }
  }
}
node {
  name: "train/gradients/softmax_cross_entropy_loss/value_grad/mul"
  op: "Mul"
  input: "train/gradients/Fill"
  input: "train/gradients/softmax_cross_entropy_loss/value_grad/div_no_nan_2"
  attr {
    key: "T"
    value {
      type: DT_FLOAT
    }
  }
}
node {
  name: "train/gradients/softmax_cross_entropy_loss/value_grad/Sum_1"
  op: "Sum"
  input: "train/gradients/softmax_cross_entropy_loss/value_grad/mul"
  input: "train/gradients/softmax_cross_entropy_loss/value_grad/BroadcastGradientArgs:1"
  attr {
    key: "T"
    value {
      type: DT_FLOAT
    }
  }
  attr {
    key: "Tidx"
    value {
      type: DT_INT32
    }
  }
  attr {
    key: "keep_dims"
    value {
      b: false
    }
  }
}
node {
  name: "train/gradients/softmax_cross_entropy_loss/value_grad/Reshape_1"
  op: "Reshape"
  input: "train/gradients/softmax_cross_entropy_loss/value_grad/Sum_1"
  input: "train/gradients/softmax_cross_entropy_loss/value_grad/Shape_1"
  attr {
    key: "T"
    value {
      type: DT_FLOAT
    }
  }
  attr {
    key: "Tshape"
    value {
      type: DT_INT32
    }
  }
}
node {
  name: "train/gradients/softmax_cross_entropy_loss/value_grad/tuple/group_deps"
  op: "NoOp"
  input: "^train/gradients/softmax_cross_entropy_loss/value_grad/Reshape"
  input: "^train/gradients/softmax_cross_entropy_loss/value_grad/Reshape_1"
}
node {
  name: "train/gradients/softmax_cross_entropy_loss/value_grad/tuple/control_dependency"
  op: "Identity"
  input: "train/gradients/softmax_cross_entropy_loss/value_grad/Reshape"
  input: "^train/gradients/softmax_cross_entropy_loss/value_grad/tuple/group_deps"
  attr {
    key: "T"
    value {
      type: DT_FLOAT
    }
  }
  attr {
    key: "_class"
    value {
      list {
        s: "loc:@train/gradients/softmax_cross_entropy_loss/value_grad/Reshape"
      }
    }
  }
}
node {
  name: "train/gradients/softmax_cross_entropy_loss/value_grad/tuple/control_dependency_1"
  op: "Identity"
  input: "train/gradients/softmax_cross_entropy_loss/value_grad/Reshape_1"
  input: "^train/gradients/softmax_cross_entropy_loss/value_grad/tuple/group_deps"
  attr {
    key: "T"
    value {
      type: DT_FLOAT
    }
  }
  attr {
    key: "_class"
    value {
      list {
        s: "loc:@train/gradients/softmax_cross_entropy_loss/value_grad/Reshape_1"
      }
    }
  }
}
node {
  name: "train/gradients/softmax_cross_entropy_loss/Sum_1_grad/Reshape/shape"
  op: "Const"
  attr {
    key: "dtype"
    value {
      type: DT_INT32
    }
  }
  attr {
    key: "value"
    value {
      tensor {
        dtype: DT_INT32
        tensor_shape {
          dim {
          }
        }
      }
    }
  }
}
node {
  name: "train/gradients/softmax_cross_entropy_loss/Sum_1_grad/Reshape"
  op: "Reshape"
  input: "train/gradients/softmax_cross_entropy_loss/value_grad/tuple/control_dependency"
  input: "train/gradients/softmax_cross_entropy_loss/Sum_1_grad/Reshape/shape"
  attr {
    key: "T"
    value {
      type: DT_FLOAT
    }
  }
  attr {
    key: "Tshape"
    value {
      type: DT_INT32
    }
  }
}
node {
  name: "train/gradients/softmax_cross_entropy_loss/Sum_1_grad/Const"
  op: "Const"
  attr {
    key: "dtype"
    value {
      type: DT_INT32
    }
  }
  attr {
    key: "value"
    value {
      tensor {
        dtype: DT_INT32
        tensor_shape {
          dim {
          }
        }
      }
    }
  }
}
node {
  name: "train/gradients/softmax_cross_entropy_loss/Sum_1_grad/Tile"
  op: "Tile"
  input: "train/gradients/softmax_cross_entropy_loss/Sum_1_grad/Reshape"
  input: "train/gradients/softmax_cross_entropy_loss/Sum_1_grad/Const"
  attr {
    key: "T"
    value {
      type: DT_FLOAT
    }
  }
  attr {
    key: "Tmultiples"
    value {
      type: DT_INT32
    }
  }
}
node {
  name: "train/gradients/softmax_cross_entropy_loss/Sum_grad/Reshape/shape"
  op: "Const"
  attr {
    key: "dtype"
    value {
      type: DT_INT32
    }
  }
  attr {
    key: "value"
    value {
      tensor {
        dtype: DT_INT32
        tensor_shape {
          dim {
            size: 1
          }
        }
        int_val: 1
      }
    }
  }
}
node {
  name: "train/gradients/softmax_cross_entropy_loss/Sum_grad/Reshape"
  op: "Reshape"
  input: "train/gradients/softmax_cross_entropy_loss/Sum_1_grad/Tile"
  input: "train/gradients/softmax_cross_entropy_loss/Sum_grad/Reshape/shape"
  attr {
    key: "T"
    value {
      type: DT_FLOAT
    }
  }
  attr {
    key: "Tshape"
    value {
      type: DT_INT32
    }
  }
}
node {
  name: "train/gradients/softmax_cross_entropy_loss/Sum_grad/Shape"
  op: "Shape"
  input: "softmax_cross_entropy_loss/Mul"
  attr {
    key: "T"
    value {
      type: DT_FLOAT
    }
  }
  attr {
    key: "out_type"
    value {
      type: DT_INT32
    }
  }
}
node {
  name: "train/gradients/softmax_cross_entropy_loss/Sum_grad/Tile"
  op: "Tile"
  input: "train/gradients/softmax_cross_entropy_loss/Sum_grad/Reshape"
  input: "train/gradients/softmax_cross_entropy_loss/Sum_grad/Shape"
  attr {
    key: "T"
    value {
      type: DT_FLOAT
    }
  }
  attr {
    key: "Tmultiples"
    value {
      type: DT_INT32
    }
  }
}
node {
  name: "train/gradients/softmax_cross_entropy_loss/Mul_grad/Shape"
  op: "Shape"
  input: "softmax_cross_entropy_loss/xentropy/Reshape_2"
  attr {
    key: "T"
    value {
      type: DT_FLOAT
    }
  }
  attr {
    key: "out_type"
    value {
      type: DT_INT32
    }
  }
}
node {
  name: "train/gradients/softmax_cross_entropy_loss/Mul_grad/Shape_1"
  op: "Const"
  attr {
    key: "dtype"
    value {
      type: DT_INT32
    }
  }
  attr {
    key: "value"
    value {
      tensor {
        dtype: DT_INT32
        tensor_shape {
          dim {
          }
        }
      }
    }
  }
}
node {
  name: "train/gradients/softmax_cross_entropy_loss/Mul_grad/BroadcastGradientArgs"
  op: "BroadcastGradientArgs"
  input: "train/gradients/softmax_cross_entropy_loss/Mul_grad/Shape"
  input: "train/gradients/softmax_cross_entropy_loss/Mul_grad/Shape_1"
  attr {
    key: "T"
    value {
      type: DT_INT32
    }
  }
}
node {
  name: "train/gradients/softmax_cross_entropy_loss/Mul_grad/Mul"
  op: "Mul"
  input: "train/gradients/softmax_cross_entropy_loss/Sum_grad/Tile"
  input: "softmax_cross_entropy_loss/ToFloat/x"
  attr {
    key: "T"
    value {
      type: DT_FLOAT
    }
  }
}
node {
  name: "train/gradients/softmax_cross_entropy_loss/Mul_grad/Sum"
  op: "Sum"
  input: "train/gradients/softmax_cross_entropy_loss/Mul_grad/Mul"
  input: "train/gradients/softmax_cross_entropy_loss/Mul_grad/BroadcastGradientArgs"
  attr {
    key: "T"
    value {
      type: DT_FLOAT
    }
  }
  attr {
    key: "Tidx"
    value {
      type: DT_INT32
    }
  }
  attr {
    key: "keep_dims"
    value {
      b: false
    }
  }
}
node {
  name: "train/gradients/softmax_cross_entropy_loss/Mul_grad/Reshape"
  op: "Reshape"
  input: "train/gradients/softmax_cross_entropy_loss/Mul_grad/Sum"
  input: "train/gradients/softmax_cross_entropy_loss/Mul_grad/Shape"
  attr {
    key: "T"
    value {
      type: DT_FLOAT
    }
  }
  attr {
    key: "Tshape"
    value {
      type: DT_INT32
    }
  }
}
node {
  name: "train/gradients/softmax_cross_entropy_loss/Mul_grad/Mul_1"
  op: "Mul"
  input: "softmax_cross_entropy_loss/xentropy/Reshape_2"
  input: "train/gradients/softmax_cross_entropy_loss/Sum_grad/Tile"
  attr {
    key: "T"
    value {
      type: DT_FLOAT
    }
  }
}
node {
  name: "train/gradients/softmax_cross_entropy_loss/Mul_grad/Sum_1"
  op: "Sum"
  input: "train/gradients/softmax_cross_entropy_loss/Mul_grad/Mul_1"
  input: "train/gradients/softmax_cross_entropy_loss/Mul_grad/BroadcastGradientArgs:1"
  attr {
    key: "T"
    value {
      type: DT_FLOAT
    }
  }
  attr {
    key: "Tidx"
    value {
      type: DT_INT32
    }
  }
  attr {
    key: "keep_dims"
    value {
      b: false
    }
  }
}
node {
  name: "train/gradients/softmax_cross_entropy_loss/Mul_grad/Reshape_1"
  op: "Reshape"
  input: "train/gradients/softmax_cross_entropy_loss/Mul_grad/Sum_1"
  input: "train/gradients/softmax_cross_entropy_loss/Mul_grad/Shape_1"
  attr {
    key: "T"
    value {
      type: DT_FLOAT
    }
  }
  attr {
    key: "Tshape"
    value {
      type: DT_INT32
    }
  }
}
node {
  name: "train/gradients/softmax_cross_entropy_loss/Mul_grad/tuple/group_deps"
  op: "NoOp"
  input: "^train/gradients/softmax_cross_entropy_loss/Mul_grad/Reshape"
  input: "^train/gradients/softmax_cross_entropy_loss/Mul_grad/Reshape_1"
}
node {
  name: "train/gradients/softmax_cross_entropy_loss/Mul_grad/tuple/control_dependency"
  op: "Identity"
  input: "train/gradients/softmax_cross_entropy_loss/Mul_grad/Reshape"
  input: "^train/gradients/softmax_cross_entropy_loss/Mul_grad/tuple/group_deps"
  attr {
    key: "T"
    value {
      type: DT_FLOAT
    }
  }
  attr {
    key: "_class"
    value {
      list {
        s: "loc:@train/gradients/softmax_cross_entropy_loss/Mul_grad/Reshape"
      }
    }
  }
}
node {
  name: "train/gradients/softmax_cross_entropy_loss/Mul_grad/tuple/control_dependency_1"
  op: "Identity"
  input: "train/gradients/softmax_cross_entropy_loss/Mul_grad/Reshape_1"
  input: "^train/gradients/softmax_cross_entropy_loss/Mul_grad/tuple/group_deps"
  attr {
    key: "T"
    value {
      type: DT_FLOAT
    }
  }
  attr {
    key: "_class"
    value {
      list {
        s: "loc:@train/gradients/softmax_cross_entropy_loss/Mul_grad/Reshape_1"
      }
    }
  }
}
node {
  name: "train/gradients/softmax_cross_entropy_loss/xentropy/Reshape_2_grad/Shape"
  op: "Shape"
  input: "softmax_cross_entropy_loss/xentropy"
  attr {
    key: "T"
    value {
      type: DT_FLOAT
    }
  }
  attr {
    key: "out_type"
    value {
      type: DT_INT32
    }
  }
}
node {
  name: "train/gradients/softmax_cross_entropy_loss/xentropy/Reshape_2_grad/Reshape"
  op: "Reshape"
  input: "train/gradients/softmax_cross_entropy_loss/Mul_grad/tuple/control_dependency"
  input: "train/gradients/softmax_cross_entropy_loss/xentropy/Reshape_2_grad/Shape"
  attr {
    key: "T"
    value {
      type: DT_FLOAT
    }
  }
  attr {
    key: "Tshape"
    value {
      type: DT_INT32
    }
  }
}
node {
  name: "train/gradients/zeros_like"
  op: "ZerosLike"
  input: "softmax_cross_entropy_loss/xentropy:1"
  attr {
    key: "T"
    value {
      type: DT_FLOAT
    }
  }
}
node {
  name: "train/gradients/softmax_cross_entropy_loss/xentropy_grad/ExpandDims/dim"
  op: "Const"
  attr {
    key: "dtype"
    value {
      type: DT_INT32
    }
  }
  attr {
    key: "value"
    value {
      tensor {
        dtype: DT_INT32
        tensor_shape {
        }
        int_val: -1
      }
    }
  }
}
node {
  name: "train/gradients/softmax_cross_entropy_loss/xentropy_grad/ExpandDims"
  op: "ExpandDims"
  input: "train/gradients/softmax_cross_entropy_loss/xentropy/Reshape_2_grad/Reshape"
  input: "train/gradients/softmax_cross_entropy_loss/xentropy_grad/ExpandDims/dim"
  attr {
    key: "T"
    value {
      type: DT_FLOAT
    }
  }
  attr {
    key: "Tdim"
    value {
      type: DT_INT32
    }
  }
}
node {
  name: "train/gradients/softmax_cross_entropy_loss/xentropy_grad/mul"
  op: "Mul"
  input: "train/gradients/softmax_cross_entropy_loss/xentropy_grad/ExpandDims"
  input: "softmax_cross_entropy_loss/xentropy:1"
  attr {
    key: "T"
    value {
      type: DT_FLOAT
    }
  }
}
node {
  name: "train/gradients/softmax_cross_entropy_loss/xentropy_grad/LogSoftmax"
  op: "LogSoftmax"
  input: "softmax_cross_entropy_loss/xentropy/Reshape"
  attr {
    key: "T"
    value {
      type: DT_FLOAT
    }
  }
}
node {
  name: "train/gradients/softmax_cross_entropy_loss/xentropy_grad/Neg"
  op: "Neg"
  input: "train/gradients/softmax_cross_entropy_loss/xentropy_grad/LogSoftmax"
  attr {
    key: "T"
    value {
      type: DT_FLOAT
    }
  }
}
node {
  name: "train/gradients/softmax_cross_entropy_loss/xentropy_grad/ExpandDims_1/dim"
  op: "Const"
  attr {
    key: "dtype"
    value {
      type: DT_INT32
    }
  }
  attr {
    key: "value"
    value {
      tensor {
        dtype: DT_INT32
        tensor_shape {
        }
        int_val: -1
      }
    }
  }
}
node {
  name: "train/gradients/softmax_cross_entropy_loss/xentropy_grad/ExpandDims_1"
  op: "ExpandDims"
  input: "train/gradients/softmax_cross_entropy_loss/xentropy/Reshape_2_grad/Reshape"
  input: "train/gradients/softmax_cross_entropy_loss/xentropy_grad/ExpandDims_1/dim"
  attr {
    key: "T"
    value {
      type: DT_FLOAT
    }
  }
  attr {
    key: "Tdim"
    value {
      type: DT_INT32
    }
  }
}
node {
  name: "train/gradients/softmax_cross_entropy_loss/xentropy_grad/mul_1"
  op: "Mul"
  input: "train/gradients/softmax_cross_entropy_loss/xentropy_grad/ExpandDims_1"
  input: "train/gradients/softmax_cross_entropy_loss/xentropy_grad/Neg"
  attr {
    key: "T"
    value {
      type: DT_FLOAT
    }
  }
}
node {
  name: "train/gradients/softmax_cross_entropy_loss/xentropy_grad/tuple/group_deps"
  op: "NoOp"
  input: "^train/gradients/softmax_cross_entropy_loss/xentropy_grad/mul"
  input: "^train/gradients/softmax_cross_entropy_loss/xentropy_grad/mul_1"
}
node {
  name: "train/gradients/softmax_cross_entropy_loss/xentropy_grad/tuple/control_dependency"
  op: "Identity"
  input: "train/gradients/softmax_cross_entropy_loss/xentropy_grad/mul"
  input: "^train/gradients/softmax_cross_entropy_loss/xentropy_grad/tuple/group_deps"
  attr {
    key: "T"
    value {
      type: DT_FLOAT
    }
  }
  attr {
    key: "_class"
    value {
      list {
        s: "loc:@train/gradients/softmax_cross_entropy_loss/xentropy_grad/mul"
      }
    }
  }
}
node {
  name: "train/gradients/softmax_cross_entropy_loss/xentropy_grad/tuple/control_dependency_1"
  op: "Identity"
  input: "train/gradients/softmax_cross_entropy_loss/xentropy_grad/mul_1"
  input: "^train/gradients/softmax_cross_entropy_loss/xentropy_grad/tuple/group_deps"
  attr {
    key: "T"
    value {
      type: DT_FLOAT
    }
  }
  attr {
    key: "_class"
    value {
      list {
        s: "loc:@train/gradients/softmax_cross_entropy_loss/xentropy_grad/mul_1"
      }
    }
  }
}
node {
  name: "train/gradients/softmax_cross_entropy_loss/xentropy/Reshape_grad/Shape"
  op: "Shape"
  input: "CNN/reshape/flatten/Reshape"
  attr {
    key: "T"
    value {
      type: DT_FLOAT
    }
  }
  attr {
    key: "out_type"
    value {
      type: DT_INT32
    }
  }
}
node {
  name: "train/gradients/softmax_cross_entropy_loss/xentropy/Reshape_grad/Reshape"
  op: "Reshape"
  input: "train/gradients/softmax_cross_entropy_loss/xentropy_grad/tuple/control_dependency"
  input: "train/gradients/softmax_cross_entropy_loss/xentropy/Reshape_grad/Shape"
  attr {
    key: "T"
    value {
      type: DT_FLOAT
    }
  }
  attr {
    key: "Tshape"
    value {
      type: DT_INT32
    }
  }
}
node {
  name: "train/gradients/CNN/reshape/flatten/Reshape_grad/Shape"
  op: "Shape"
  input: "CNN/1_by_1_conv_2/conv2d/BiasAdd"
  attr {
    key: "T"
    value {
      type: DT_FLOAT
    }
  }
  attr {
    key: "out_type"
    value {
      type: DT_INT32
    }
  }
}
node {
  name: "train/gradients/CNN/reshape/flatten/Reshape_grad/Reshape"
  op: "Reshape"
  input: "train/gradients/softmax_cross_entropy_loss/xentropy/Reshape_grad/Reshape"
  input: "train/gradients/CNN/reshape/flatten/Reshape_grad/Shape"
  attr {
    key: "T"
    value {
      type: DT_FLOAT
    }
  }
  attr {
    key: "Tshape"
    value {
      type: DT_INT32
    }
  }
}
node {
  name: "train/gradients/CNN/1_by_1_conv_2/conv2d/BiasAdd_grad/BiasAddGrad"
  op: "BiasAddGrad"
  input: "train/gradients/CNN/reshape/flatten/Reshape_grad/Reshape"
  attr {
    key: "T"
    value {
      type: DT_FLOAT
    }
  }
  attr {
    key: "data_format"
    value {
      s: "NHWC"
    }
  }
}
node {
  name: "train/gradients/CNN/1_by_1_conv_2/conv2d/BiasAdd_grad/tuple/group_deps"
  op: "NoOp"
  input: "^train/gradients/CNN/1_by_1_conv_2/conv2d/BiasAdd_grad/BiasAddGrad"
  input: "^train/gradients/CNN/reshape/flatten/Reshape_grad/Reshape"
}
node {
  name: "train/gradients/CNN/1_by_1_conv_2/conv2d/BiasAdd_grad/tuple/control_dependency"
  op: "Identity"
  input: "train/gradients/CNN/reshape/flatten/Reshape_grad/Reshape"
  input: "^train/gradients/CNN/1_by_1_conv_2/conv2d/BiasAdd_grad/tuple/group_deps"
  attr {
    key: "T"
    value {
      type: DT_FLOAT
    }
  }
  attr {
    key: "_class"
    value {
      list {
        s: "loc:@train/gradients/CNN/reshape/flatten/Reshape_grad/Reshape"
      }
    }
  }
}
node {
  name: "train/gradients/CNN/1_by_1_conv_2/conv2d/BiasAdd_grad/tuple/control_dependency_1"
  op: "Identity"
  input: "train/gradients/CNN/1_by_1_conv_2/conv2d/BiasAdd_grad/BiasAddGrad"
  input: "^train/gradients/CNN/1_by_1_conv_2/conv2d/BiasAdd_grad/tuple/group_deps"
  attr {
    key: "T"
    value {
      type: DT_FLOAT
    }
  }
  attr {
    key: "_class"
    value {
      list {
        s: "loc:@train/gradients/CNN/1_by_1_conv_2/conv2d/BiasAdd_grad/BiasAddGrad"
      }
    }
  }
}
node {
  name: "train/gradients/CNN/1_by_1_conv_2/conv2d/Conv2D_grad/ShapeN"
  op: "ShapeN"
  input: "CNN/1_by_1_conv_1/Relu"
  input: "CNN/1_by_1_conv_2/conv2d/kernel/read"
  attr {
    key: "N"
    value {
      i: 2
    }
  }
  attr {
    key: "T"
    value {
      type: DT_FLOAT
    }
  }
  attr {
    key: "out_type"
    value {
      type: DT_INT32
    }
  }
}
node {
  name: "train/gradients/CNN/1_by_1_conv_2/conv2d/Conv2D_grad/Conv2DBackpropInput"
  op: "Conv2DBackpropInput"
  input: "train/gradients/CNN/1_by_1_conv_2/conv2d/Conv2D_grad/ShapeN"
  input: "CNN/1_by_1_conv_2/conv2d/kernel/read"
  input: "train/gradients/CNN/1_by_1_conv_2/conv2d/BiasAdd_grad/tuple/control_dependency"
  attr {
    key: "T"
    value {
      type: DT_FLOAT
    }
  }
  attr {
    key: "data_format"
    value {
      s: "NHWC"
    }
  }
  attr {
    key: "dilations"
    value {
      list {
        i: 1
        i: 1
        i: 1
        i: 1
      }
    }
  }
  attr {
    key: "padding"
    value {
      s: "SAME"
    }
  }
  attr {
    key: "strides"
    value {
      list {
        i: 1
        i: 1
        i: 1
        i: 1
      }
    }
  }
  attr {
    key: "use_cudnn_on_gpu"
    value {
      b: true
    }
  }
}
node {
  name: "train/gradients/CNN/1_by_1_conv_2/conv2d/Conv2D_grad/Conv2DBackpropFilter"
  op: "Conv2DBackpropFilter"
  input: "CNN/1_by_1_conv_1/Relu"
  input: "train/gradients/CNN/1_by_1_conv_2/conv2d/Conv2D_grad/ShapeN:1"
  input: "train/gradients/CNN/1_by_1_conv_2/conv2d/BiasAdd_grad/tuple/control_dependency"
  attr {
    key: "T"
    value {
      type: DT_FLOAT
    }
  }
  attr {
    key: "data_format"
    value {
      s: "NHWC"
    }
  }
  attr {
    key: "dilations"
    value {
      list {
        i: 1
        i: 1
        i: 1
        i: 1
      }
    }
  }
  attr {
    key: "padding"
    value {
      s: "SAME"
    }
  }
  attr {
    key: "strides"
    value {
      list {
        i: 1
        i: 1
        i: 1
        i: 1
      }
    }
  }
  attr {
    key: "use_cudnn_on_gpu"
    value {
      b: true
    }
  }
}
node {
  name: "train/gradients/CNN/1_by_1_conv_2/conv2d/Conv2D_grad/tuple/group_deps"
  op: "NoOp"
  input: "^train/gradients/CNN/1_by_1_conv_2/conv2d/Conv2D_grad/Conv2DBackpropFilter"
  input: "^train/gradients/CNN/1_by_1_conv_2/conv2d/Conv2D_grad/Conv2DBackpropInput"
}
node {
  name: "train/gradients/CNN/1_by_1_conv_2/conv2d/Conv2D_grad/tuple/control_dependency"
  op: "Identity"
  input: "train/gradients/CNN/1_by_1_conv_2/conv2d/Conv2D_grad/Conv2DBackpropInput"
  input: "^train/gradients/CNN/1_by_1_conv_2/conv2d/Conv2D_grad/tuple/group_deps"
  attr {
    key: "T"
    value {
      type: DT_FLOAT
    }
  }
  attr {
    key: "_class"
    value {
      list {
        s: "loc:@train/gradients/CNN/1_by_1_conv_2/conv2d/Conv2D_grad/Conv2DBackpropInput"
      }
    }
  }
}
node {
  name: "train/gradients/CNN/1_by_1_conv_2/conv2d/Conv2D_grad/tuple/control_dependency_1"
  op: "Identity"
  input: "train/gradients/CNN/1_by_1_conv_2/conv2d/Conv2D_grad/Conv2DBackpropFilter"
  input: "^train/gradients/CNN/1_by_1_conv_2/conv2d/Conv2D_grad/tuple/group_deps"
  attr {
    key: "T"
    value {
      type: DT_FLOAT
    }
  }
  attr {
    key: "_class"
    value {
      list {
        s: "loc:@train/gradients/CNN/1_by_1_conv_2/conv2d/Conv2D_grad/Conv2DBackpropFilter"
      }
    }
  }
}
node {
  name: "train/gradients/CNN/1_by_1_conv_1/Relu_grad/ReluGrad"
  op: "ReluGrad"
  input: "train/gradients/CNN/1_by_1_conv_2/conv2d/Conv2D_grad/tuple/control_dependency"
  input: "CNN/1_by_1_conv_1/Relu"
  attr {
    key: "T"
    value {
      type: DT_FLOAT
    }
  }
}
node {
  name: "train/gradients/CNN/1_by_1_conv_1/conv2d/BiasAdd_grad/BiasAddGrad"
  op: "BiasAddGrad"
  input: "train/gradients/CNN/1_by_1_conv_1/Relu_grad/ReluGrad"
  attr {
    key: "T"
    value {
      type: DT_FLOAT
    }
  }
  attr {
    key: "data_format"
    value {
      s: "NHWC"
    }
  }
}
node {
  name: "train/gradients/CNN/1_by_1_conv_1/conv2d/BiasAdd_grad/tuple/group_deps"
  op: "NoOp"
  input: "^train/gradients/CNN/1_by_1_conv_1/Relu_grad/ReluGrad"
  input: "^train/gradients/CNN/1_by_1_conv_1/conv2d/BiasAdd_grad/BiasAddGrad"
}
node {
  name: "train/gradients/CNN/1_by_1_conv_1/conv2d/BiasAdd_grad/tuple/control_dependency"
  op: "Identity"
  input: "train/gradients/CNN/1_by_1_conv_1/Relu_grad/ReluGrad"
  input: "^train/gradients/CNN/1_by_1_conv_1/conv2d/BiasAdd_grad/tuple/group_deps"
  attr {
    key: "T"
    value {
      type: DT_FLOAT
    }
  }
  attr {
    key: "_class"
    value {
      list {
        s: "loc:@train/gradients/CNN/1_by_1_conv_1/Relu_grad/ReluGrad"
      }
    }
  }
}
node {
  name: "train/gradients/CNN/1_by_1_conv_1/conv2d/BiasAdd_grad/tuple/control_dependency_1"
  op: "Identity"
  input: "train/gradients/CNN/1_by_1_conv_1/conv2d/BiasAdd_grad/BiasAddGrad"
  input: "^train/gradients/CNN/1_by_1_conv_1/conv2d/BiasAdd_grad/tuple/group_deps"
  attr {
    key: "T"
    value {
      type: DT_FLOAT
    }
  }
  attr {
    key: "_class"
    value {
      list {
        s: "loc:@train/gradients/CNN/1_by_1_conv_1/conv2d/BiasAdd_grad/BiasAddGrad"
      }
    }
  }
}
node {
  name: "train/gradients/CNN/1_by_1_conv_1/conv2d/Conv2D_grad/ShapeN"
  op: "ShapeN"
  input: "CNN/reduce_sum/Reshape"
  input: "CNN/1_by_1_conv_1/conv2d/kernel/read"
  attr {
    key: "N"
    value {
      i: 2
    }
  }
  attr {
    key: "T"
    value {
      type: DT_FLOAT
    }
  }
  attr {
    key: "out_type"
    value {
      type: DT_INT32
    }
  }
}
node {
  name: "train/gradients/CNN/1_by_1_conv_1/conv2d/Conv2D_grad/Conv2DBackpropInput"
  op: "Conv2DBackpropInput"
  input: "train/gradients/CNN/1_by_1_conv_1/conv2d/Conv2D_grad/ShapeN"
  input: "CNN/1_by_1_conv_1/conv2d/kernel/read"
  input: "train/gradients/CNN/1_by_1_conv_1/conv2d/BiasAdd_grad/tuple/control_dependency"
  attr {
    key: "T"
    value {
      type: DT_FLOAT
    }
  }
  attr {
    key: "data_format"
    value {
      s: "NHWC"
    }
  }
  attr {
    key: "dilations"
    value {
      list {
        i: 1
        i: 1
        i: 1
        i: 1
      }
    }
  }
  attr {
    key: "padding"
    value {
      s: "SAME"
    }
  }
  attr {
    key: "strides"
    value {
      list {
        i: 1
        i: 1
        i: 1
        i: 1
      }
    }
  }
  attr {
    key: "use_cudnn_on_gpu"
    value {
      b: true
    }
  }
}
node {
  name: "train/gradients/CNN/1_by_1_conv_1/conv2d/Conv2D_grad/Conv2DBackpropFilter"
  op: "Conv2DBackpropFilter"
  input: "CNN/reduce_sum/Reshape"
  input: "train/gradients/CNN/1_by_1_conv_1/conv2d/Conv2D_grad/ShapeN:1"
  input: "train/gradients/CNN/1_by_1_conv_1/conv2d/BiasAdd_grad/tuple/control_dependency"
  attr {
    key: "T"
    value {
      type: DT_FLOAT
    }
  }
  attr {
    key: "data_format"
    value {
      s: "NHWC"
    }
  }
  attr {
    key: "dilations"
    value {
      list {
        i: 1
        i: 1
        i: 1
        i: 1
      }
    }
  }
  attr {
    key: "padding"
    value {
      s: "SAME"
    }
  }
  attr {
    key: "strides"
    value {
      list {
        i: 1
        i: 1
        i: 1
        i: 1
      }
    }
  }
  attr {
    key: "use_cudnn_on_gpu"
    value {
      b: true
    }
  }
}
node {
  name: "train/gradients/CNN/1_by_1_conv_1/conv2d/Conv2D_grad/tuple/group_deps"
  op: "NoOp"
  input: "^train/gradients/CNN/1_by_1_conv_1/conv2d/Conv2D_grad/Conv2DBackpropFilter"
  input: "^train/gradients/CNN/1_by_1_conv_1/conv2d/Conv2D_grad/Conv2DBackpropInput"
}
node {
  name: "train/gradients/CNN/1_by_1_conv_1/conv2d/Conv2D_grad/tuple/control_dependency"
  op: "Identity"
  input: "train/gradients/CNN/1_by_1_conv_1/conv2d/Conv2D_grad/Conv2DBackpropInput"
  input: "^train/gradients/CNN/1_by_1_conv_1/conv2d/Conv2D_grad/tuple/group_deps"
  attr {
    key: "T"
    value {
      type: DT_FLOAT
    }
  }
  attr {
    key: "_class"
    value {
      list {
        s: "loc:@train/gradients/CNN/1_by_1_conv_1/conv2d/Conv2D_grad/Conv2DBackpropInput"
      }
    }
  }
}
node {
  name: "train/gradients/CNN/1_by_1_conv_1/conv2d/Conv2D_grad/tuple/control_dependency_1"
  op: "Identity"
  input: "train/gradients/CNN/1_by_1_conv_1/conv2d/Conv2D_grad/Conv2DBackpropFilter"
  input: "^train/gradients/CNN/1_by_1_conv_1/conv2d/Conv2D_grad/tuple/group_deps"
  attr {
    key: "T"
    value {
      type: DT_FLOAT
    }
  }
  attr {
    key: "_class"
    value {
      list {
        s: "loc:@train/gradients/CNN/1_by_1_conv_1/conv2d/Conv2D_grad/Conv2DBackpropFilter"
      }
    }
  }
}
node {
  name: "train/gradients/CNN/reduce_sum/Reshape_grad/Shape"
  op: "Shape"
  input: "CNN/reduce_sum/Sum"
  attr {
    key: "T"
    value {
      type: DT_FLOAT
    }
  }
  attr {
    key: "out_type"
    value {
      type: DT_INT32
    }
  }
}
node {
  name: "train/gradients/CNN/reduce_sum/Reshape_grad/Reshape"
  op: "Reshape"
  input: "train/gradients/CNN/1_by_1_conv_1/conv2d/Conv2D_grad/tuple/control_dependency"
  input: "train/gradients/CNN/reduce_sum/Reshape_grad/Shape"
  attr {
    key: "T"
    value {
      type: DT_FLOAT
    }
  }
  attr {
    key: "Tshape"
    value {
      type: DT_INT32
    }
  }
}
node {
  name: "train/gradients/CNN/reduce_sum/Sum_grad/Shape"
  op: "Shape"
  input: "CNN/conv_3/Relu"
  attr {
    key: "T"
    value {
      type: DT_FLOAT
    }
  }
  attr {
    key: "out_type"
    value {
      type: DT_INT32
    }
  }
}
node {
  name: "train/gradients/CNN/reduce_sum/Sum_grad/Size"
  op: "Const"
  attr {
    key: "_class"
    value {
      list {
        s: "loc:@train/gradients/CNN/reduce_sum/Sum_grad/Shape"
      }
    }
  }
  attr {
    key: "dtype"
    value {
      type: DT_INT32
    }
  }
  attr {
    key: "value"
    value {
      tensor {
        dtype: DT_INT32
        tensor_shape {
        }
        int_val: 4
      }
    }
  }
}
node {
  name: "train/gradients/CNN/reduce_sum/Sum_grad/add"
  op: "Add"
  input: "CNN/reduce_sum/Sum/reduction_indices"
  input: "train/gradients/CNN/reduce_sum/Sum_grad/Size"
  attr {
    key: "T"
    value {
      type: DT_INT32
    }
  }
  attr {
    key: "_class"
    value {
      list {
        s: "loc:@train/gradients/CNN/reduce_sum/Sum_grad/Shape"
      }
    }
  }
}
node {
  name: "train/gradients/CNN/reduce_sum/Sum_grad/mod"
  op: "FloorMod"
  input: "train/gradients/CNN/reduce_sum/Sum_grad/add"
  input: "train/gradients/CNN/reduce_sum/Sum_grad/Size"
  attr {
    key: "T"
    value {
      type: DT_INT32
    }
  }
  attr {
    key: "_class"
    value {
      list {
        s: "loc:@train/gradients/CNN/reduce_sum/Sum_grad/Shape"
      }
    }
  }
}
node {
  name: "train/gradients/CNN/reduce_sum/Sum_grad/Shape_1"
  op: "Const"
  attr {
    key: "_class"
    value {
      list {
        s: "loc:@train/gradients/CNN/reduce_sum/Sum_grad/Shape"
      }
    }
  }
  attr {
    key: "dtype"
    value {
      type: DT_INT32
    }
  }
  attr {
    key: "value"
    value {
      tensor {
        dtype: DT_INT32
        tensor_shape {
          dim {
            size: 1
          }
        }
        int_val: 2
      }
    }
  }
}
node {
  name: "train/gradients/CNN/reduce_sum/Sum_grad/range/start"
  op: "Const"
  attr {
    key: "_class"
    value {
      list {
        s: "loc:@train/gradients/CNN/reduce_sum/Sum_grad/Shape"
      }
    }
  }
  attr {
    key: "dtype"
    value {
      type: DT_INT32
    }
  }
  attr {
    key: "value"
    value {
      tensor {
        dtype: DT_INT32
        tensor_shape {
        }
        int_val: 0
      }
    }
  }
}
node {
  name: "train/gradients/CNN/reduce_sum/Sum_grad/range/delta"
  op: "Const"
  attr {
    key: "_class"
    value {
      list {
        s: "loc:@train/gradients/CNN/reduce_sum/Sum_grad/Shape"
      }
    }
  }
  attr {
    key: "dtype"
    value {
      type: DT_INT32
    }
  }
  attr {
    key: "value"
    value {
      tensor {
        dtype: DT_INT32
        tensor_shape {
        }
        int_val: 1
      }
    }
  }
}
node {
  name: "train/gradients/CNN/reduce_sum/Sum_grad/range"
  op: "Range"
  input: "train/gradients/CNN/reduce_sum/Sum_grad/range/start"
  input: "train/gradients/CNN/reduce_sum/Sum_grad/Size"
  input: "train/gradients/CNN/reduce_sum/Sum_grad/range/delta"
  attr {
    key: "Tidx"
    value {
      type: DT_INT32
    }
  }
  attr {
    key: "_class"
    value {
      list {
        s: "loc:@train/gradients/CNN/reduce_sum/Sum_grad/Shape"
      }
    }
  }
}
node {
  name: "train/gradients/CNN/reduce_sum/Sum_grad/Fill/value"
  op: "Const"
  attr {
    key: "_class"
    value {
      list {
        s: "loc:@train/gradients/CNN/reduce_sum/Sum_grad/Shape"
      }
    }
  }
  attr {
    key: "dtype"
    value {
      type: DT_INT32
    }
  }
  attr {
    key: "value"
    value {
      tensor {
        dtype: DT_INT32
        tensor_shape {
        }
        int_val: 1
      }
    }
  }
}
node {
  name: "train/gradients/CNN/reduce_sum/Sum_grad/Fill"
  op: "Fill"
  input: "train/gradients/CNN/reduce_sum/Sum_grad/Shape_1"
  input: "train/gradients/CNN/reduce_sum/Sum_grad/Fill/value"
  attr {
    key: "T"
    value {
      type: DT_INT32
    }
  }
  attr {
    key: "_class"
    value {
      list {
        s: "loc:@train/gradients/CNN/reduce_sum/Sum_grad/Shape"
      }
    }
  }
  attr {
    key: "index_type"
    value {
      type: DT_INT32
    }
  }
}
node {
  name: "train/gradients/CNN/reduce_sum/Sum_grad/DynamicStitch"
  op: "DynamicStitch"
  input: "train/gradients/CNN/reduce_sum/Sum_grad/range"
  input: "train/gradients/CNN/reduce_sum/Sum_grad/mod"
  input: "train/gradients/CNN/reduce_sum/Sum_grad/Shape"
  input: "train/gradients/CNN/reduce_sum/Sum_grad/Fill"
  attr {
    key: "N"
    value {
      i: 2
    }
  }
  attr {
    key: "T"
    value {
      type: DT_INT32
    }
  }
  attr {
    key: "_class"
    value {
      list {
        s: "loc:@train/gradients/CNN/reduce_sum/Sum_grad/Shape"
      }
    }
  }
}
node {
  name: "train/gradients/CNN/reduce_sum/Sum_grad/Maximum/y"
  op: "Const"
  attr {
    key: "_class"
    value {
      list {
        s: "loc:@train/gradients/CNN/reduce_sum/Sum_grad/Shape"
      }
    }
  }
  attr {
    key: "dtype"
    value {
      type: DT_INT32
    }
  }
  attr {
    key: "value"
    value {
      tensor {
        dtype: DT_INT32
        tensor_shape {
        }
        int_val: 1
      }
    }
  }
}
node {
  name: "train/gradients/CNN/reduce_sum/Sum_grad/Maximum"
  op: "Maximum"
  input: "train/gradients/CNN/reduce_sum/Sum_grad/DynamicStitch"
  input: "train/gradients/CNN/reduce_sum/Sum_grad/Maximum/y"
  attr {
    key: "T"
    value {
      type: DT_INT32
    }
  }
  attr {
    key: "_class"
    value {
      list {
        s: "loc:@train/gradients/CNN/reduce_sum/Sum_grad/Shape"
      }
    }
  }
}
node {
  name: "train/gradients/CNN/reduce_sum/Sum_grad/floordiv"
  op: "FloorDiv"
  input: "train/gradients/CNN/reduce_sum/Sum_grad/Shape"
  input: "train/gradients/CNN/reduce_sum/Sum_grad/Maximum"
  attr {
    key: "T"
    value {
      type: DT_INT32
    }
  }
  attr {
    key: "_class"
    value {
      list {
        s: "loc:@train/gradients/CNN/reduce_sum/Sum_grad/Shape"
      }
    }
  }
}
node {
  name: "train/gradients/CNN/reduce_sum/Sum_grad/Reshape"
  op: "Reshape"
  input: "train/gradients/CNN/reduce_sum/Reshape_grad/Reshape"
  input: "train/gradients/CNN/reduce_sum/Sum_grad/DynamicStitch"
  attr {
    key: "T"
    value {
      type: DT_FLOAT
    }
  }
  attr {
    key: "Tshape"
    value {
      type: DT_INT32
    }
  }
}
node {
  name: "train/gradients/CNN/reduce_sum/Sum_grad/Tile"
  op: "Tile"
  input: "train/gradients/CNN/reduce_sum/Sum_grad/Reshape"
  input: "train/gradients/CNN/reduce_sum/Sum_grad/floordiv"
  attr {
    key: "T"
    value {
      type: DT_FLOAT
    }
  }
  attr {
    key: "Tmultiples"
    value {
      type: DT_INT32
    }
  }
}
node {
  name: "train/gradients/CNN/conv_3/Relu_grad/ReluGrad"
  op: "ReluGrad"
  input: "train/gradients/CNN/reduce_sum/Sum_grad/Tile"
  input: "CNN/conv_3/Relu"
  attr {
    key: "T"
    value {
      type: DT_FLOAT
    }
  }
}
node {
  name: "train/gradients/CNN/conv_3/conv2d/BiasAdd_grad/BiasAddGrad"
  op: "BiasAddGrad"
  input: "train/gradients/CNN/conv_3/Relu_grad/ReluGrad"
  attr {
    key: "T"
    value {
      type: DT_FLOAT
    }
  }
  attr {
    key: "data_format"
    value {
      s: "NHWC"
    }
  }
}
node {
  name: "train/gradients/CNN/conv_3/conv2d/BiasAdd_grad/tuple/group_deps"
  op: "NoOp"
  input: "^train/gradients/CNN/conv_3/Relu_grad/ReluGrad"
  input: "^train/gradients/CNN/conv_3/conv2d/BiasAdd_grad/BiasAddGrad"
}
node {
  name: "train/gradients/CNN/conv_3/conv2d/BiasAdd_grad/tuple/control_dependency"
  op: "Identity"
  input: "train/gradients/CNN/conv_3/Relu_grad/ReluGrad"
  input: "^train/gradients/CNN/conv_3/conv2d/BiasAdd_grad/tuple/group_deps"
  attr {
    key: "T"
    value {
      type: DT_FLOAT
    }
  }
  attr {
    key: "_class"
    value {
      list {
        s: "loc:@train/gradients/CNN/conv_3/Relu_grad/ReluGrad"
      }
    }
  }
}
node {
  name: "train/gradients/CNN/conv_3/conv2d/BiasAdd_grad/tuple/control_dependency_1"
  op: "Identity"
  input: "train/gradients/CNN/conv_3/conv2d/BiasAdd_grad/BiasAddGrad"
  input: "^train/gradients/CNN/conv_3/conv2d/BiasAdd_grad/tuple/group_deps"
  attr {
    key: "T"
    value {
      type: DT_FLOAT
    }
  }
  attr {
    key: "_class"
    value {
      list {
        s: "loc:@train/gradients/CNN/conv_3/conv2d/BiasAdd_grad/BiasAddGrad"
      }
    }
  }
}
node {
  name: "train/gradients/CNN/conv_3/conv2d/BatchToSpaceND_grad/SpaceToBatchND"
  op: "SpaceToBatchND"
  input: "train/gradients/CNN/conv_3/conv2d/BiasAdd_grad/tuple/control_dependency"
  input: "CNN/conv_3/conv2d/BatchToSpaceND/block_shape"
  input: "CNN/conv_3/conv2d/BatchToSpaceND/crops"
  attr {
    key: "T"
    value {
      type: DT_FLOAT
    }
  }
  attr {
    key: "Tblock_shape"
    value {
      type: DT_INT32
    }
  }
  attr {
    key: "Tpaddings"
    value {
      type: DT_INT32
    }
  }
}
node {
  name: "train/gradients/CNN/conv_3/conv2d/Conv2D_grad/ShapeN"
  op: "ShapeN"
  input: "CNN/conv_3/conv2d/SpaceToBatchND"
  input: "CNN/conv_3/conv2d/kernel/read"
  attr {
    key: "N"
    value {
      i: 2
    }
  }
  attr {
    key: "T"
    value {
      type: DT_FLOAT
    }
  }
  attr {
    key: "out_type"
    value {
      type: DT_INT32
    }
  }
}
node {
  name: "train/gradients/CNN/conv_3/conv2d/Conv2D_grad/Conv2DBackpropInput"
  op: "Conv2DBackpropInput"
  input: "train/gradients/CNN/conv_3/conv2d/Conv2D_grad/ShapeN"
  input: "CNN/conv_3/conv2d/kernel/read"
  input: "train/gradients/CNN/conv_3/conv2d/BatchToSpaceND_grad/SpaceToBatchND"
  attr {
    key: "T"
    value {
      type: DT_FLOAT
    }
  }
  attr {
    key: "data_format"
    value {
      s: "NHWC"
    }
  }
  attr {
    key: "dilations"
    value {
      list {
        i: 1
        i: 1
        i: 1
        i: 1
      }
    }
  }
  attr {
    key: "padding"
    value {
      s: "VALID"
    }
  }
  attr {
    key: "strides"
    value {
      list {
        i: 1
        i: 1
        i: 1
        i: 1
      }
    }
  }
  attr {
    key: "use_cudnn_on_gpu"
    value {
      b: true
    }
  }
}
node {
  name: "train/gradients/CNN/conv_3/conv2d/Conv2D_grad/Conv2DBackpropFilter"
  op: "Conv2DBackpropFilter"
  input: "CNN/conv_3/conv2d/SpaceToBatchND"
  input: "train/gradients/CNN/conv_3/conv2d/Conv2D_grad/ShapeN:1"
  input: "train/gradients/CNN/conv_3/conv2d/BatchToSpaceND_grad/SpaceToBatchND"
  attr {
    key: "T"
    value {
      type: DT_FLOAT
    }
  }
  attr {
    key: "data_format"
    value {
      s: "NHWC"
    }
  }
  attr {
    key: "dilations"
    value {
      list {
        i: 1
        i: 1
        i: 1
        i: 1
      }
    }
  }
  attr {
    key: "padding"
    value {
      s: "VALID"
    }
  }
  attr {
    key: "strides"
    value {
      list {
        i: 1
        i: 1
        i: 1
        i: 1
      }
    }
  }
  attr {
    key: "use_cudnn_on_gpu"
    value {
      b: true
    }
  }
}
node {
  name: "train/gradients/CNN/conv_3/conv2d/Conv2D_grad/tuple/group_deps"
  op: "NoOp"
  input: "^train/gradients/CNN/conv_3/conv2d/Conv2D_grad/Conv2DBackpropFilter"
  input: "^train/gradients/CNN/conv_3/conv2d/Conv2D_grad/Conv2DBackpropInput"
}
node {
  name: "train/gradients/CNN/conv_3/conv2d/Conv2D_grad/tuple/control_dependency"
  op: "Identity"
  input: "train/gradients/CNN/conv_3/conv2d/Conv2D_grad/Conv2DBackpropInput"
  input: "^train/gradients/CNN/conv_3/conv2d/Conv2D_grad/tuple/group_deps"
  attr {
    key: "T"
    value {
      type: DT_FLOAT
    }
  }
  attr {
    key: "_class"
    value {
      list {
        s: "loc:@train/gradients/CNN/conv_3/conv2d/Conv2D_grad/Conv2DBackpropInput"
      }
    }
  }
}
node {
  name: "train/gradients/CNN/conv_3/conv2d/Conv2D_grad/tuple/control_dependency_1"
  op: "Identity"
  input: "train/gradients/CNN/conv_3/conv2d/Conv2D_grad/Conv2DBackpropFilter"
  input: "^train/gradients/CNN/conv_3/conv2d/Conv2D_grad/tuple/group_deps"
  attr {
    key: "T"
    value {
      type: DT_FLOAT
    }
  }
  attr {
    key: "_class"
    value {
      list {
        s: "loc:@train/gradients/CNN/conv_3/conv2d/Conv2D_grad/Conv2DBackpropFilter"
      }
    }
  }
}
node {
  name: "train/gradients/CNN/conv_3/conv2d/SpaceToBatchND_grad/BatchToSpaceND"
  op: "BatchToSpaceND"
  input: "train/gradients/CNN/conv_3/conv2d/Conv2D_grad/tuple/control_dependency"
  input: "CNN/conv_3/conv2d/SpaceToBatchND/block_shape"
  input: "CNN/conv_3/conv2d/SpaceToBatchND/paddings"
  attr {
    key: "T"
    value {
      type: DT_FLOAT
    }
  }
  attr {
    key: "Tblock_shape"
    value {
      type: DT_INT32
    }
  }
  attr {
    key: "Tcrops"
    value {
      type: DT_INT32
    }
  }
}
node {
  name: "train/gradients/CNN/conv_2/Relu_grad/ReluGrad"
  op: "ReluGrad"
  input: "train/gradients/CNN/conv_3/conv2d/SpaceToBatchND_grad/BatchToSpaceND"
  input: "CNN/conv_2/Relu"
  attr {
    key: "T"
    value {
      type: DT_FLOAT
    }
  }
}
node {
  name: "train/gradients/CNN/conv_2/conv2d/BiasAdd_grad/BiasAddGrad"
  op: "BiasAddGrad"
  input: "train/gradients/CNN/conv_2/Relu_grad/ReluGrad"
  attr {
    key: "T"
    value {
      type: DT_FLOAT
    }
  }
  attr {
    key: "data_format"
    value {
      s: "NHWC"
    }
  }
}
node {
  name: "train/gradients/CNN/conv_2/conv2d/BiasAdd_grad/tuple/group_deps"
  op: "NoOp"
  input: "^train/gradients/CNN/conv_2/Relu_grad/ReluGrad"
  input: "^train/gradients/CNN/conv_2/conv2d/BiasAdd_grad/BiasAddGrad"
}
node {
  name: "train/gradients/CNN/conv_2/conv2d/BiasAdd_grad/tuple/control_dependency"
  op: "Identity"
  input: "train/gradients/CNN/conv_2/Relu_grad/ReluGrad"
  input: "^train/gradients/CNN/conv_2/conv2d/BiasAdd_grad/tuple/group_deps"
  attr {
    key: "T"
    value {
      type: DT_FLOAT
    }
  }
  attr {
    key: "_class"
    value {
      list {
        s: "loc:@train/gradients/CNN/conv_2/Relu_grad/ReluGrad"
      }
    }
  }
}
node {
  name: "train/gradients/CNN/conv_2/conv2d/BiasAdd_grad/tuple/control_dependency_1"
  op: "Identity"
  input: "train/gradients/CNN/conv_2/conv2d/BiasAdd_grad/BiasAddGrad"
  input: "^train/gradients/CNN/conv_2/conv2d/BiasAdd_grad/tuple/group_deps"
  attr {
    key: "T"
    value {
      type: DT_FLOAT
    }
  }
  attr {
    key: "_class"
    value {
      list {
        s: "loc:@train/gradients/CNN/conv_2/conv2d/BiasAdd_grad/BiasAddGrad"
      }
    }
  }
}
node {
  name: "train/gradients/CNN/conv_2/conv2d/BatchToSpaceND_grad/SpaceToBatchND"
  op: "SpaceToBatchND"
  input: "train/gradients/CNN/conv_2/conv2d/BiasAdd_grad/tuple/control_dependency"
  input: "CNN/conv_2/conv2d/BatchToSpaceND/block_shape"
  input: "CNN/conv_2/conv2d/BatchToSpaceND/crops"
  attr {
    key: "T"
    value {
      type: DT_FLOAT
    }
  }
  attr {
    key: "Tblock_shape"
    value {
      type: DT_INT32
    }
  }
  attr {
    key: "Tpaddings"
    value {
      type: DT_INT32
    }
  }
}
node {
  name: "train/gradients/CNN/conv_2/conv2d/Conv2D_grad/ShapeN"
  op: "ShapeN"
  input: "CNN/conv_2/conv2d/SpaceToBatchND"
  input: "CNN/conv_2/conv2d/kernel/read"
  attr {
    key: "N"
    value {
      i: 2
    }
  }
  attr {
    key: "T"
    value {
      type: DT_FLOAT
    }
  }
  attr {
    key: "out_type"
    value {
      type: DT_INT32
    }
  }
}
node {
  name: "train/gradients/CNN/conv_2/conv2d/Conv2D_grad/Conv2DBackpropInput"
  op: "Conv2DBackpropInput"
  input: "train/gradients/CNN/conv_2/conv2d/Conv2D_grad/ShapeN"
  input: "CNN/conv_2/conv2d/kernel/read"
  input: "train/gradients/CNN/conv_2/conv2d/BatchToSpaceND_grad/SpaceToBatchND"
  attr {
    key: "T"
    value {
      type: DT_FLOAT
    }
  }
  attr {
    key: "data_format"
    value {
      s: "NHWC"
    }
  }
  attr {
    key: "dilations"
    value {
      list {
        i: 1
        i: 1
        i: 1
        i: 1
      }
    }
  }
  attr {
    key: "padding"
    value {
      s: "VALID"
    }
  }
  attr {
    key: "strides"
    value {
      list {
        i: 1
        i: 1
        i: 1
        i: 1
      }
    }
  }
  attr {
    key: "use_cudnn_on_gpu"
    value {
      b: true
    }
  }
}
node {
  name: "train/gradients/CNN/conv_2/conv2d/Conv2D_grad/Conv2DBackpropFilter"
  op: "Conv2DBackpropFilter"
  input: "CNN/conv_2/conv2d/SpaceToBatchND"
  input: "train/gradients/CNN/conv_2/conv2d/Conv2D_grad/ShapeN:1"
  input: "train/gradients/CNN/conv_2/conv2d/BatchToSpaceND_grad/SpaceToBatchND"
  attr {
    key: "T"
    value {
      type: DT_FLOAT
    }
  }
  attr {
    key: "data_format"
    value {
      s: "NHWC"
    }
  }
  attr {
    key: "dilations"
    value {
      list {
        i: 1
        i: 1
        i: 1
        i: 1
      }
    }
  }
  attr {
    key: "padding"
    value {
      s: "VALID"
    }
  }
  attr {
    key: "strides"
    value {
      list {
        i: 1
        i: 1
        i: 1
        i: 1
      }
    }
  }
  attr {
    key: "use_cudnn_on_gpu"
    value {
      b: true
    }
  }
}
node {
  name: "train/gradients/CNN/conv_2/conv2d/Conv2D_grad/tuple/group_deps"
  op: "NoOp"
  input: "^train/gradients/CNN/conv_2/conv2d/Conv2D_grad/Conv2DBackpropFilter"
  input: "^train/gradients/CNN/conv_2/conv2d/Conv2D_grad/Conv2DBackpropInput"
}
node {
  name: "train/gradients/CNN/conv_2/conv2d/Conv2D_grad/tuple/control_dependency"
  op: "Identity"
  input: "train/gradients/CNN/conv_2/conv2d/Conv2D_grad/Conv2DBackpropInput"
  input: "^train/gradients/CNN/conv_2/conv2d/Conv2D_grad/tuple/group_deps"
  attr {
    key: "T"
    value {
      type: DT_FLOAT
    }
  }
  attr {
    key: "_class"
    value {
      list {
        s: "loc:@train/gradients/CNN/conv_2/conv2d/Conv2D_grad/Conv2DBackpropInput"
      }
    }
  }
}
node {
  name: "train/gradients/CNN/conv_2/conv2d/Conv2D_grad/tuple/control_dependency_1"
  op: "Identity"
  input: "train/gradients/CNN/conv_2/conv2d/Conv2D_grad/Conv2DBackpropFilter"
  input: "^train/gradients/CNN/conv_2/conv2d/Conv2D_grad/tuple/group_deps"
  attr {
    key: "T"
    value {
      type: DT_FLOAT
    }
  }
  attr {
    key: "_class"
    value {
      list {
        s: "loc:@train/gradients/CNN/conv_2/conv2d/Conv2D_grad/Conv2DBackpropFilter"
      }
    }
  }
}
node {
  name: "train/gradients/CNN/conv_2/conv2d/SpaceToBatchND_grad/BatchToSpaceND"
  op: "BatchToSpaceND"
  input: "train/gradients/CNN/conv_2/conv2d/Conv2D_grad/tuple/control_dependency"
  input: "CNN/conv_2/conv2d/SpaceToBatchND/block_shape"
  input: "CNN/conv_2/conv2d/SpaceToBatchND/paddings"
  attr {
    key: "T"
    value {
      type: DT_FLOAT
    }
  }
  attr {
    key: "Tblock_shape"
    value {
      type: DT_INT32
    }
  }
  attr {
    key: "Tcrops"
    value {
      type: DT_INT32
    }
  }
}
node {
  name: "train/gradients/CNN/conv_1/LeakyRelu_grad/LeakyReluGrad"
  op: "LeakyReluGrad"
  input: "train/gradients/CNN/conv_2/conv2d/SpaceToBatchND_grad/BatchToSpaceND"
  input: "CNN/conv_1/conv2d/BiasAdd"
  attr {
    key: "T"
    value {
      type: DT_FLOAT
    }
  }
  attr {
    key: "alpha"
    value {
      f: 0.20000000298023224
    }
  }
}
node {
  name: "train/gradients/CNN/conv_1/conv2d/BiasAdd_grad/BiasAddGrad"
  op: "BiasAddGrad"
  input: "train/gradients/CNN/conv_1/LeakyRelu_grad/LeakyReluGrad"
  attr {
    key: "T"
    value {
      type: DT_FLOAT
    }
  }
  attr {
    key: "data_format"
    value {
      s: "NHWC"
    }
  }
}
node {
  name: "train/gradients/CNN/conv_1/conv2d/BiasAdd_grad/tuple/group_deps"
  op: "NoOp"
  input: "^train/gradients/CNN/conv_1/LeakyRelu_grad/LeakyReluGrad"
  input: "^train/gradients/CNN/conv_1/conv2d/BiasAdd_grad/BiasAddGrad"
}
node {
  name: "train/gradients/CNN/conv_1/conv2d/BiasAdd_grad/tuple/control_dependency"
  op: "Identity"
  input: "train/gradients/CNN/conv_1/LeakyRelu_grad/LeakyReluGrad"
  input: "^train/gradients/CNN/conv_1/conv2d/BiasAdd_grad/tuple/group_deps"
  attr {
    key: "T"
    value {
      type: DT_FLOAT
    }
  }
  attr {
    key: "_class"
    value {
      list {
        s: "loc:@train/gradients/CNN/conv_1/LeakyRelu_grad/LeakyReluGrad"
      }
    }
  }
}
node {
  name: "train/gradients/CNN/conv_1/conv2d/BiasAdd_grad/tuple/control_dependency_1"
  op: "Identity"
  input: "train/gradients/CNN/conv_1/conv2d/BiasAdd_grad/BiasAddGrad"
  input: "^train/gradients/CNN/conv_1/conv2d/BiasAdd_grad/tuple/group_deps"
  attr {
    key: "T"
    value {
      type: DT_FLOAT
    }
  }
  attr {
    key: "_class"
    value {
      list {
        s: "loc:@train/gradients/CNN/conv_1/conv2d/BiasAdd_grad/BiasAddGrad"
      }
    }
  }
}
node {
  name: "train/gradients/CNN/conv_1/conv2d/Conv2D_grad/ShapeN"
  op: "ShapeN"
  input: "phase_specs"
  input: "CNN/conv_1/conv2d/kernel/read"
  attr {
    key: "N"
    value {
      i: 2
    }
  }
  attr {
    key: "T"
    value {
      type: DT_FLOAT
    }
  }
  attr {
    key: "out_type"
    value {
      type: DT_INT32
    }
  }
}
node {
  name: "train/gradients/CNN/conv_1/conv2d/Conv2D_grad/Conv2DBackpropInput"
  op: "Conv2DBackpropInput"
  input: "train/gradients/CNN/conv_1/conv2d/Conv2D_grad/ShapeN"
  input: "CNN/conv_1/conv2d/kernel/read"
  input: "train/gradients/CNN/conv_1/conv2d/BiasAdd_grad/tuple/control_dependency"
  attr {
    key: "T"
    value {
      type: DT_FLOAT
    }
  }
  attr {
    key: "data_format"
    value {
      s: "NHWC"
    }
  }
  attr {
    key: "dilations"
    value {
      list {
        i: 1
        i: 1
        i: 1
        i: 1
      }
    }
  }
  attr {
    key: "padding"
    value {
      s: "SAME"
    }
  }
  attr {
    key: "strides"
    value {
      list {
        i: 1
        i: 1
        i: 1
        i: 1
      }
    }
  }
  attr {
    key: "use_cudnn_on_gpu"
    value {
      b: true
    }
  }
}
node {
  name: "train/gradients/CNN/conv_1/conv2d/Conv2D_grad/Conv2DBackpropFilter"
  op: "Conv2DBackpropFilter"
  input: "phase_specs"
  input: "train/gradients/CNN/conv_1/conv2d/Conv2D_grad/ShapeN:1"
  input: "train/gradients/CNN/conv_1/conv2d/BiasAdd_grad/tuple/control_dependency"
  attr {
    key: "T"
    value {
      type: DT_FLOAT
    }
  }
  attr {
    key: "data_format"
    value {
      s: "NHWC"
    }
  }
  attr {
    key: "dilations"
    value {
      list {
        i: 1
        i: 1
        i: 1
        i: 1
      }
    }
  }
  attr {
    key: "padding"
    value {
      s: "SAME"
    }
  }
  attr {
    key: "strides"
    value {
      list {
        i: 1
        i: 1
        i: 1
        i: 1
      }
    }
  }
  attr {
    key: "use_cudnn_on_gpu"
    value {
      b: true
    }
  }
}
node {
  name: "train/gradients/CNN/conv_1/conv2d/Conv2D_grad/tuple/group_deps"
  op: "NoOp"
  input: "^train/gradients/CNN/conv_1/conv2d/Conv2D_grad/Conv2DBackpropFilter"
  input: "^train/gradients/CNN/conv_1/conv2d/Conv2D_grad/Conv2DBackpropInput"
}
node {
  name: "train/gradients/CNN/conv_1/conv2d/Conv2D_grad/tuple/control_dependency"
  op: "Identity"
  input: "train/gradients/CNN/conv_1/conv2d/Conv2D_grad/Conv2DBackpropInput"
  input: "^train/gradients/CNN/conv_1/conv2d/Conv2D_grad/tuple/group_deps"
  attr {
    key: "T"
    value {
      type: DT_FLOAT
    }
  }
  attr {
    key: "_class"
    value {
      list {
        s: "loc:@train/gradients/CNN/conv_1/conv2d/Conv2D_grad/Conv2DBackpropInput"
      }
    }
  }
}
node {
…
  input: "CNN/1_by_1_conv_1/conv2d/bias/Adam"
  input: "CNN/1_by_1_conv_1/conv2d/bias/Adam_1"
  input: "CNN/1_by_1_conv_1/conv2d/kernel"
  input: "CNN/1_by_1_conv_1/conv2d/kernel/Adam"
  input: "CNN/1_by_1_conv_1/conv2d/kernel/Adam_1"
  input: "CNN/1_by_1_conv_2/conv2d/bias"
  input: "CNN/1_by_1_conv_2/conv2d/bias/Adam"
  input: "CNN/1_by_1_conv_2/conv2d/bias/Adam_1"
  input: "CNN/1_by_1_conv_2/conv2d/kernel"
  input: "CNN/1_by_1_conv_2/conv2d/kernel/Adam"
  input: "CNN/1_by_1_conv_2/conv2d/kernel/Adam_1"
  input: "CNN/conv_1/conv2d/bias"
  input: "CNN/conv_1/conv2d/bias/Adam"
  input: "CNN/conv_1/conv2d/bias/Adam_1"
  input: "CNN/conv_1/conv2d/kernel"
  input: "CNN/conv_1/conv2d/kernel/Adam"
  input: "CNN/conv_1/conv2d/kernel/Adam_1"
  input: "CNN/conv_2/conv2d/bias"
  input: "CNN/conv_2/conv2d/bias/Adam"
  input: "CNN/conv_2/conv2d/bias/Adam_1"
  input: "CNN/conv_2/conv2d/kernel"
  input: "CNN/conv_2/conv2d/kernel/Adam"
  input: "CNN/conv_2/conv2d/kernel/Adam_1"
  input: "CNN/conv_3/conv2d/bias"
  input: "CNN/conv_3/conv2d/bias/Adam"
  input: "CNN/conv_3/conv2d/bias/Adam_1"
  input: "CNN/conv_3/conv2d/kernel"
  input: "CNN/conv_3/conv2d/kernel/Adam"
  input: "CNN/conv_3/conv2d/kernel/Adam_1"
  input: "global_step"
  input: "train/beta1_power"
  input: "train/beta2_power"
  attr {
    key: "dtypes"
    value {
      list {
        type: DT_FLOAT
        type: DT_FLOAT
        type: DT_FLOAT
        type: DT_FLOAT
        type: DT_FLOAT
        type: DT_FLOAT
        type: DT_FLOAT
        type: DT_FLOAT
        type: DT_FLOAT
        type: DT_FLOAT
        type: DT_FLOAT
        type: DT_FLOAT
        type: DT_FLOAT
        type: DT_FLOAT
        type: DT_FLOAT
        type: DT_FLOAT
        type: DT_FLOAT
        type: DT_FLOAT
        type: DT_FLOAT
        type: DT_FLOAT
        type: DT_FLOAT
        type: DT_FLOAT
        type: DT_FLOAT
        type: DT_FLOAT
        type: DT_FLOAT
        type: DT_FLOAT
        type: DT_FLOAT
        type: DT_FLOAT
        type: DT_FLOAT
        type: DT_FLOAT
        type: DT_INT64
        type: DT_FLOAT
        type: DT_FLOAT
      }
    }
  }
}
node {
  name: "save/control_dependency"
  op: "Identity"
  input: "save/Const"
  input: "^save/SaveV2"
  attr {
    key: "T"
    value {
      type: DT_STRING
    }
  }
  attr {
    key: "_class"
    value {
      list {
        s: "loc:@save/Const"
      }
    }
  }
}
node {
  name: "save/RestoreV2/tensor_names"
  op: "Const"
  device: "/device:CPU:0"
  attr {
    key: "dtype"
    value {
      type: DT_STRING
    }
  }
  attr {
    key: "value"
    value {
      tensor {
        dtype: DT_STRING
        tensor_shape {
          dim {
            size: 33
          }
        }
        string_val: "CNN/1_by_1_conv_1/conv2d/bias"
        string_val: "CNN/1_by_1_conv_1/conv2d/bias/Adam"
        string_val: "CNN/1_by_1_conv_1/conv2d/bias/Adam_1"
        string_val: "CNN/1_by_1_conv_1/conv2d/kernel"
        string_val: "CNN/1_by_1_conv_1/conv2d/kernel/Adam"
        string_val: "CNN/1_by_1_conv_1/conv2d/kernel/Adam_1"
        string_val: "CNN/1_by_1_conv_2/conv2d/bias"
        string_val: "CNN/1_by_1_conv_2/conv2d/bias/Adam"
        string_val: "CNN/1_by_1_conv_2/conv2d/bias/Adam_1"
        string_val: "CNN/1_by_1_conv_2/conv2d/kernel"
        string_val: "CNN/1_by_1_conv_2/conv2d/kernel/Adam"
        string_val: "CNN/1_by_1_conv_2/conv2d/kernel/Adam_1"
        string_val: "CNN/conv_1/conv2d/bias"
        string_val: "CNN/conv_1/conv2d/bias/Adam"
        string_val: "CNN/conv_1/conv2d/bias/Adam_1"
        string_val: "CNN/conv_1/conv2d/kernel"
        string_val: "CNN/conv_1/conv2d/kernel/Adam"
        string_val: "CNN/conv_1/conv2d/kernel/Adam_1"
        string_val: "CNN/conv_2/conv2d/bias"
        string_val: "CNN/conv_2/conv2d/bias/Adam"
        string_val: "CNN/conv_2/conv2d/bias/Adam_1"
        string_val: "CNN/conv_2/conv2d/kernel"
        string_val: "CNN/conv_2/conv2d/kernel/Adam"
        string_val: "CNN/conv_2/conv2d/kernel/Adam_1"
        string_val: "CNN/conv_3/conv2d/bias"
        string_val: "CNN/conv_3/conv2d/bias/Adam"
        string_val: "CNN/conv_3/conv2d/bias/Adam_1"
        string_val: "CNN/conv_3/conv2d/kernel"
        string_val: "CNN/conv_3/conv2d/kernel/Adam"
        string_val: "CNN/conv_3/conv2d/kernel/Adam_1"
        string_val: "global_step"
        string_val: "train/beta1_power"
        string_val: "train/beta2_power"
      }
    }
  }
}
node {
  name: "save/RestoreV2/shape_and_slices"
  op: "Const"
  device: "/device:CPU:0"
  attr {
    key: "dtype"
    value {
      type: DT_STRING
    }
  }
  attr {
    key: "value"
    value {
      tensor {
        dtype: DT_STRING
        tensor_shape {
          dim {
            size: 33
          }
        }
        string_val: ""
        string_val: ""
        string_val: ""
        string_val: ""
        string_val: ""
        string_val: ""
        string_val: ""
        string_val: ""
        string_val: ""
        string_val: ""
        string_val: ""
        string_val: ""
        string_val: ""
        string_val: ""
        string_val: ""
        string_val: ""
        string_val: ""
        string_val: ""
        string_val: ""
        string_val: ""
        string_val: ""
        string_val: ""
        string_val: ""
        string_val: ""
        string_val: ""
        string_val: ""
        string_val: ""
        string_val: ""
        string_val: ""
        string_val: ""
        string_val: ""
        string_val: ""
        string_val: ""
      }
    }
  }
}
node {
  name: "save/RestoreV2"
  op: "RestoreV2"
  input: "save/Const"
  input: "save/RestoreV2/tensor_names"
  input: "save/RestoreV2/shape_and_slices"
  device: "/device:CPU:0"
  attr {
    key: "dtypes"
    value {
      list {
        type: DT_FLOAT
        type: DT_FLOAT
        type: DT_FLOAT
        type: DT_FLOAT
        type: DT_FLOAT
        type: DT_FLOAT
        type: DT_FLOAT
        type: DT_FLOAT
        type: DT_FLOAT
        type: DT_FLOAT
        type: DT_FLOAT
        type: DT_FLOAT
        type: DT_FLOAT
        type: DT_FLOAT
        type: DT_FLOAT
        type: DT_FLOAT
        type: DT_FLOAT
        type: DT_FLOAT
        type: DT_FLOAT
        type: DT_FLOAT
        type: DT_FLOAT
        type: DT_FLOAT
        type: DT_FLOAT
        type: DT_FLOAT
        type: DT_FLOAT
        type: DT_FLOAT
        type: DT_FLOAT
        type: DT_FLOAT
        type: DT_FLOAT
        type: DT_FLOAT
        type: DT_INT64
        type: DT_FLOAT
        type: DT_FLOAT
      }
    }
  }
}
node {
  name: "save/Assign"
  op: "Assign"
  input: "CNN/1_by_1_conv_1/conv2d/bias"
  input: "save/RestoreV2"
  attr {
    key: "T"
    value {
      type: DT_FLOAT
    }
  }
  attr {
    key: "_class"
    value {
      list {
        s: "loc:@CNN/1_by_1_conv_1/conv2d/bias"
      }
    }
  }
  attr {
    key: "use_locking"
    value {
      b: true
    }
  }
  attr {
    key: "validate_shape"
    value {
      b: true
    }
  }
}
node {
  name: "save/Assign_1"
  op: "Assign"
  input: "CNN/1_by_1_conv_1/conv2d/bias/Adam"
  input: "save/RestoreV2:1"
  attr {
    key: "T"
    value {
      type: DT_FLOAT
    }
  }
  attr {
    key: "_class"
    value {
      list {
        s: "loc:@CNN/1_by_1_conv_1/conv2d/bias"
      }
    }
  }
  attr {
    key: "use_locking"
    value {
      b: true
    }
  }
  attr {
    key: "validate_shape"
    value {
      b: true
    }
  }
}
node {
  name: "save/Assign_2"
  op: "Assign"
  input: "CNN/1_by_1_conv_1/conv2d/bias/Adam_1"
  input: "save/RestoreV2:2"
  attr {
    key: "T"
    value {
      type: DT_FLOAT
    }
  }
  attr {
    key: "_class"
    value {
      list {
        s: "loc:@CNN/1_by_1_conv_1/conv2d/bias"
      }
    }
  }
  attr {
    key: "use_locking"
    value {
      b: true
    }
  }
  attr {
    key: "validate_shape"
    value {
      b: true
    }
  }
}
node {
  name: "save/Assign_3"
  op: "Assign"
  input: "CNN/1_by_1_conv_1/conv2d/kernel"
  input: "save/RestoreV2:3"
  attr {
    key: "T"
    value {
      type: DT_FLOAT
    }
  }
  attr {
    key: "_class"
    value {
      list {
        s: "loc:@CNN/1_by_1_conv_1/conv2d/kernel"
      }
    }
  }
  attr {
    key: "use_locking"
    value {
      b: true
    }
  }
  attr {
    key: "validate_shape"
    value {
      b: true
    }
  }
}
node {
  name: "save/Assign_4"
  op: "Assign"
  input: "CNN/1_by_1_conv_1/conv2d/kernel/Adam"
  input: "save/RestoreV2:4"
  attr {
    key: "T"
    value {
      type: DT_FLOAT
    }
  }
  attr {
    key: "_class"
    value {
      list {
        s: "loc:@CNN/1_by_1_conv_1/conv2d/kernel"
      }
    }
  }
  attr {
    key: "use_locking"
    value {
      b: true
    }
  }
  attr {
    key: "validate_shape"
    value {
      b: true
    }
  }
}
node {
  name: "save/Assign_5"
  op: "Assign"
  input: "CNN/1_by_1_conv_1/conv2d/kernel/Adam_1"
  input: "save/RestoreV2:5"
  attr {
    key: "T"
    value {
      type: DT_FLOAT
    }
  }
  attr {
    key: "_class"
    value {
      list {
        s: "loc:@CNN/1_by_1_conv_1/conv2d/kernel"
      }
    }
  }
  attr {
    key: "use_locking"
    value {
      b: true
    }
  }
  attr {
    key: "validate_shape"
    value {
      b: true
    }
  }
}
node {
  name: "save/Assign_6"
  op: "Assign"
  input: "CNN/1_by_1_conv_2/conv2d/bias"
  input: "save/RestoreV2:6"
  attr {
    key: "T"
    value {
      type: DT_FLOAT
    }
  }
  attr {
    key: "_class"
    value {
      list {
        s: "loc:@CNN/1_by_1_conv_2/conv2d/bias"
      }
    }
  }
  attr {
    key: "use_locking"
    value {
      b: true
    }
  }
  attr {
    key: "validate_shape"
    value {
      b: true
    }
  }
}
node {
  name: "save/Assign_7"
  op: "Assign"
  input: "CNN/1_by_1_conv_2/conv2d/bias/Adam"
  input: "save/RestoreV2:7"
  attr {
    key: "T"
    value {
      type: DT_FLOAT
    }
  }
  attr {
    key: "_class"
    value {
      list {
        s: "loc:@CNN/1_by_1_conv_2/conv2d/bias"
      }
    }
  }
  attr {
    key: "use_locking"
    value {
      b: true
    }
  }
  attr {
    key: "validate_shape"
    value {
      b: true
    }
  }
}
node {
  name: "save/Assign_8"
  op: "Assign"
  input: "CNN/1_by_1_conv_2/conv2d/bias/Adam_1"
  input: "save/RestoreV2:8"
  attr {
    key: "T"
    value {
      type: DT_FLOAT
    }
  }
  attr {
    key: "_class"
    value {
      list {
        s: "loc:@CNN/1_by_1_conv_2/conv2d/bias"
      }
    }
  }
  attr {
    key: "use_locking"
    value {
      b: true
    }
  }
  attr {
    key: "validate_shape"
    value {
      b: true
    }
  }
}
node {
  name: "save/Assign_9"
  op: "Assign"
  input: "CNN/1_by_1_conv_2/conv2d/kernel"
  input: "save/RestoreV2:9"
  attr {
    key: "T"
    value {
      type: DT_FLOAT
    }
  }
  attr {
    key: "_class"
    value {
      list {
        s: "loc:@CNN/1_by_1_conv_2/conv2d/kernel"
      }
    }
  }
  attr {
    key: "use_locking"
    value {
      b: true
    }
  }
  attr {
    key: "validate_shape"
    value {
      b: true
    }
  }
}
node {
  name: "save/Assign_10"
  op: "Assign"
  input: "CNN/1_by_1_conv_2/conv2d/kernel/Adam"
  input: "save/RestoreV2:10"
  attr {
    key: "T"
    value {
      type: DT_FLOAT
    }
  }
  attr {
    key: "_class"
    value {
      list {
        s: "loc:@CNN/1_by_1_conv_2/conv2d/kernel"
      }
    }
  }
  attr {
    key: "use_locking"
    value {
      b: true
    }
  }
  attr {
    key: "validate_shape"
    value {
      b: true
    }
  }
}
node {
  name: "save/Assign_11"
  op: "Assign"
  input: "CNN/1_by_1_conv_2/conv2d/kernel/Adam_1"
  input: "save/RestoreV2:11"
  attr {
    key: "T"
    value {
      type: DT_FLOAT
    }
  }
  attr {
    key: "_class"
    value {
      list {
        s: "loc:@CNN/1_by_1_conv_2/conv2d/kernel"
      }
    }
  }
  attr {
    key: "use_locking"
    value {
      b: true
    }
  }
  attr {
    key: "validate_shape"
    value {
      b: true
    }
  }
}
node {
  name: "save/Assign_12"
  op: "Assign"
  input: "CNN/conv_1/conv2d/bias"
  input: "save/RestoreV2:12"
  attr {
    key: "T"
    value {
      type: DT_FLOAT
    }
  }
  attr {
    key: "_class"
    value {
      list {
        s: "loc:@CNN/conv_1/conv2d/bias"
      }
    }
  }
  attr {
    key: "use_locking"
    value {
      b: true
    }
  }
  attr {
    key: "validate_shape"
    value {
      b: true
    }
  }
}
node {
  name: "save/Assign_13"
  op: "Assign"
  input: "CNN/conv_1/conv2d/bias/Adam"
  input: "save/RestoreV2:13"
  attr {
    key: "T"
    value {
      type: DT_FLOAT
    }
  }
  attr {
    key: "_class"
    value {
      list {
        s: "loc:@CNN/conv_1/conv2d/bias"
      }
    }
  }
  attr {
    key: "use_locking"
    value {
      b: true
    }
  }
  attr {
    key: "validate_shape"
    value {
      b: true
    }
  }
}
node {
  name: "save/Assign_14"
  op: "Assign"
  input: "CNN/conv_1/conv2d/bias/Adam_1"
  input: "save/RestoreV2:14"
  attr {
    key: "T"
    value {
      type: DT_FLOAT
    }
  }
  attr {
    key: "_class"
    value {
      list {
        s: "loc:@CNN/conv_1/conv2d/bias"
      }
    }
  }
  attr {
    key: "use_locking"
    value {
      b: true
    }
  }
  attr {
    key: "validate_shape"
    value {
      b: true
    }
  }
}
node {
  name: "save/Assign_15"
  op: "Assign"
  input: "CNN/conv_1/conv2d/kernel"
  input: "save/RestoreV2:15"
  attr {
    key: "T"
    value {
      type: DT_FLOAT
    }
  }
  attr {
    key: "_class"
    value {
      list {
        s: "loc:@CNN/conv_1/conv2d/kernel"
      }
    }
  }
  attr {
    key: "use_locking"
    value {
      b: true
    }
  }
  attr {
    key: "validate_shape"
    value {
      b: true
    }
  }
}
node {
  name: "save/Assign_16"
  op: "Assign"
  input: "CNN/conv_1/conv2d/kernel/Adam"
  input: "save/RestoreV2:16"
  attr {
    key: "T"
    value {
      type: DT_FLOAT
    }
  }
  attr {
    key: "_class"
    value {
      list {
        s: "loc:@CNN/conv_1/conv2d/kernel"
      }
    }
  }
  attr {
    key: "use_locking"
    value {
      b: true
    }
  }
  attr {
    key: "validate_shape"
    value {
      b: true
    }
  }
}
node {
  name: "save/Assign_17"
  op: "Assign"
  input: "CNN/conv_1/conv2d/kernel/Adam_1"
  input: "save/RestoreV2:17"
  attr {
    key: "T"
    value {
      type: DT_FLOAT
    }
  }
  attr {
    key: "_class"
    value {
      list {
        s: "loc:@CNN/conv_1/conv2d/kernel"
      }
    }
  }
  attr {
    key: "use_locking"
    value {
      b: true
    }
  }
  attr {
    key: "validate_shape"
    value {
      b: true
    }
  }
}
node {
  name: "save/Assign_18"
  op: "Assign"
  input: "CNN/conv_2/conv2d/bias"
  input: "save/RestoreV2:18"
  attr {
    key: "T"
    value {
      type: DT_FLOAT
    }
  }
  attr {
    key: "_class"
    value {
      list {
        s: "loc:@CNN/conv_2/conv2d/bias"
      }
    }
  }
  attr {
    key: "use_locking"
    value {
      b: true
    }
  }
  attr {
    key: "validate_shape"
    value {
      b: true
    }
  }
}
node {
  name: "save/Assign_19"
  op: "Assign"
  input: "CNN/conv_2/conv2d/bias/Adam"
  input: "save/RestoreV2:19"
  attr {
    key: "T"
    value {
      type: DT_FLOAT
    }
  }
  attr {
    key: "_class"
    value {
      list {
        s: "loc:@CNN/conv_2/conv2d/bias"
      }
    }
  }
  attr {
    key: "use_locking"
    value {
      b: true
    }
  }
  attr {
    key: "validate_shape"
    value {
      b: true
    }
  }
}
node {
  name: "save/Assign_20"
  op: "Assign"
  input: "CNN/conv_2/conv2d/bias/Adam_1"
  input: "save/RestoreV2:20"
  attr {
    key: "T"
    value {
      type: DT_FLOAT
    }
  }
  attr {
    key: "_class"
    value {
      list {
        s: "loc:@CNN/conv_2/conv2d/bias"
      }
    }
  }
  attr {
    key: "use_locking"
    value {
      b: true
    }
  }
  attr {
    key: "validate_shape"
    value {
      b: true
    }
  }
}
node {
  name: "save/Assign_21"
  op: "Assign"
  input: "CNN/conv_2/conv2d/kernel"
  input: "save/RestoreV2:21"
  attr {
    key: "T"
    value {
      type: DT_FLOAT
    }
  }
  attr {
    key: "_class"
    value {
      list {
        s: "loc:@CNN/conv_2/conv2d/kernel"
      }
    }
  }
  attr {
    key: "use_locking"
    value {
      b: true
    }
  }
  attr {
    key: "validate_shape"
    value {
      b: true
    }
  }
}
node {
  name: "save/Assign_22"
  op: "Assign"
  input: "CNN/conv_2/conv2d/kernel/Adam"
  input: "save/RestoreV2:22"
  attr {
    key: "T"
    value {
      type: DT_FLOAT
    }
  }
  attr {
    key: "_class"
    value {
      list {
        s: "loc:@CNN/conv_2/conv2d/kernel"
      }
    }
  }
  attr {
    key: "use_locking"
    value {
      b: true
    }
  }
  attr {
    key: "validate_shape"
    value {
      b: true
    }
  }
}
node {
  name: "save/Assign_23"
  op: "Assign"
  input: "CNN/conv_2/conv2d/kernel/Adam_1"
  input: "save/RestoreV2:23"
  attr {
    key: "T"
    value {
      type: DT_FLOAT
    }
  }
  attr {
    key: "_class"
    value {
      list {
        s: "loc:@CNN/conv_2/conv2d/kernel"
      }
    }
  }
  attr {
    key: "use_locking"
    value {
      b: true
    }
  }
  attr {
    key: "validate_shape"
    value {
      b: true
    }
  }
}
node {
  name: "save/Assign_24"
  op: "Assign"
  input: "CNN/conv_3/conv2d/bias"
  input: "save/RestoreV2:24"
  attr {
    key: "T"
    value {
      type: DT_FLOAT
    }
  }
  attr {
    key: "_class"
    value {
      list {
        s: "loc:@CNN/conv_3/conv2d/bias"
      }
    }
  }
  attr {
    key: "use_locking"
    value {
      b: true
    }
  }
  attr {
    key: "validate_shape"
    value {
      b: true
    }
  }
}
node {
  name: "save/Assign_25"
  op: "Assign"
  input: "CNN/conv_3/conv2d/bias/Adam"
  input: "save/RestoreV2:25"
  attr {
    key: "T"
    value {
      type: DT_FLOAT
    }
  }
  attr {
    key: "_class"
    value {
      list {
        s: "loc:@CNN/conv_3/conv2d/bias"
      }
    }
  }
  attr {
    key: "use_locking"
    value {
      b: true
    }
  }
  attr {
    key: "validate_shape"
    value {
      b: true
    }
  }
}
node {
  name: "save/Assign_26"
  op: "Assign"
  input: "CNN/conv_3/conv2d/bias/Adam_1"
  input: "save/RestoreV2:26"
  attr {
    key: "T"
    value {
      type: DT_FLOAT
    }
  }
  attr {
    key: "_class"
    value {
      list {
        s: "loc:@CNN/conv_3/conv2d/bias"
      }
    }
  }
  attr {
    key: "use_locking"
    value {
      b: true
    }
  }
  attr {
    key: "validate_shape"
    value {
      b: true
    }
  }
}
node {
  name: "save/Assign_27"
  op: "Assign"
  input: "CNN/conv_3/conv2d/kernel"
  input: "save/RestoreV2:27"
  attr {
    key: "T"
    value {
      type: DT_FLOAT
    }
  }
  attr {
    key: "_class"
    value {
      list {
        s: "loc:@CNN/conv_3/conv2d/kernel"
      }
    }
  }
  attr {
    key: "use_locking"
    value {
      b: true
    }
  }
  attr {
    key: "validate_shape"
    value {
      b: true
    }
  }
}
node {
  name: "save/Assign_28"
  op: "Assign"
  input: "CNN/conv_3/conv2d/kernel/Adam"
  input: "save/RestoreV2:28"
  attr {
    key: "T"
    value {
      type: DT_FLOAT
    }
  }
  attr {
    key: "_class"
    value {
      list {
        s: "loc:@CNN/conv_3/conv2d/kernel"
      }
    }
  }
  attr {
    key: "use_locking"
    value {
      b: true
    }
  }
  attr {
    key: "validate_shape"
    value {
      b: true
    }
  }
}
node {
  name: "save/Assign_29"
  op: "Assign"
  input: "CNN/conv_3/conv2d/kernel/Adam_1"
  input: "save/RestoreV2:29"
  attr {
    key: "T"
    value {
      type: DT_FLOAT
    }
  }
  attr {
    key: "_class"
    value {
      list {
        s: "loc:@CNN/conv_3/conv2d/kernel"
      }
    }
  }
  attr {
    key: "use_locking"
    value {
      b: true
    }
  }
  attr {
    key: "validate_shape"
    value {
      b: true
    }
  }
}
node {
  name: "save/Assign_30"
  op: "Assign"
  input: "global_step"
  input: "save/RestoreV2:30"
  attr {
    key: "T"
    value {
      type: DT_INT64
    }
  }
  attr {
    key: "_class"
    value {
      list {
        s: "loc:@global_step"
      }
    }
  }
  attr {
    key: "use_locking"
    value {
      b: true
    }
  }
  attr {
    key: "validate_shape"
    value {
      b: true
    }
  }
}
node {
  name: "save/Assign_31"
  op: "Assign"
  input: "train/beta1_power"
  input: "save/RestoreV2:31"
  attr {
    key: "T"
    value {
      type: DT_FLOAT
    }
  }
  attr {
    key: "_class"
    value {
      list {
        s: "loc:@CNN/1_by_1_conv_1/conv2d/bias"
      }
    }
  }
  attr {
    key: "use_locking"
    value {
      b: true
    }
  }
  attr {
    key: "validate_shape"
    value {
      b: true
    }
  }
}
node {
  name: "save/Assign_32"
  op: "Assign"
  input: "train/beta2_power"
  input: "save/RestoreV2:32"
  attr {
    key: "T"
    value {
      type: DT_FLOAT
    }
  }
  attr {
    key: "_class"
    value {
      list {
        s: "loc:@CNN/1_by_1_conv_1/conv2d/bias"
      }
    }
  }
  attr {
    key: "use_locking"
    value {
      b: true
    }
  }
  attr {
    key: "validate_shape"
    value {
      b: true
    }
  }
}
node {
  name: "save/restore_all"
  op: "NoOp"
  input: "^save/Assign"
  input: "^save/Assign_1"
  input: "^save/Assign_10"
  input: "^save/Assign_11"
  input: "^save/Assign_12"
  input: "^save/Assign_13"
  input: "^save/Assign_14"
  input: "^save/Assign_15"
  input: "^save/Assign_16"
  input: "^save/Assign_17"
  input: "^save/Assign_18"
  input: "^save/Assign_19"
  input: "^save/Assign_2"
  input: "^save/Assign_20"
  input: "^save/Assign_21"
  input: "^save/Assign_22"
  input: "^save/Assign_23"
  input: "^save/Assign_24"
  input: "^save/Assign_25"
  input: "^save/Assign_26"
  input: "^save/Assign_27"
  input: "^save/Assign_28"
  input: "^save/Assign_29"
  input: "^save/Assign_3"
  input: "^save/Assign_30"
  input: "^save/Assign_31"
  input: "^save/Assign_32"
  input: "^save/Assign_4"
  input: "^save/Assign_5"
  input: "^save/Assign_6"
  input: "^save/Assign_7"
  input: "^save/Assign_8"
  input: "^save/Assign_9"
}
node {
  name: "Merge/MergeSummary"
  op: "MergeSummary"
  input: "cross_entropy"
  input: "class_accuracy"
  input: "per_class_accuracy"
  attr {
    key: "N"
    value {
      i: 3
    }
  }
}
node {
  name: "init"
  op: "NoOp"
  input: "^CNN/1_by_1_conv_1/conv2d/bias/Adam/Assign"
  input: "^CNN/1_by_1_conv_1/conv2d/bias/Adam_1/Assign"
  input: "^CNN/1_by_1_conv_1/conv2d/bias/Assign"
  input: "^CNN/1_by_1_conv_1/conv2d/kernel/Adam/Assign"
  input: "^CNN/1_by_1_conv_1/conv2d/kernel/Adam_1/Assign"
  input: "^CNN/1_by_1_conv_1/conv2d/kernel/Assign"
  input: "^CNN/1_by_1_conv_2/conv2d/bias/Adam/Assign"
  input: "^CNN/1_by_1_conv_2/conv2d/bias/Adam_1/Assign"
  input: "^CNN/1_by_1_conv_2/conv2d/bias/Assign"
  input: "^CNN/1_by_1_conv_2/conv2d/kernel/Adam/Assign"
  input: "^CNN/1_by_1_conv_2/conv2d/kernel/Adam_1/Assign"
  input: "^CNN/1_by_1_conv_2/conv2d/kernel/Assign"
  input: "^CNN/conv_1/conv2d/bias/Adam/Assign"
  input: "^CNN/conv_1/conv2d/bias/Adam_1/Assign"
  input: "^CNN/conv_1/conv2d/bias/Assign"
  input: "^CNN/conv_1/conv2d/kernel/Adam/Assign"
  input: "^CNN/conv_1/conv2d/kernel/Adam_1/Assign"
  input: "^CNN/conv_1/conv2d/kernel/Assign"
  input: "^CNN/conv_2/conv2d/bias/Adam/Assign"
  input: "^CNN/conv_2/conv2d/bias/Adam_1/Assign"
  input: "^CNN/conv_2/conv2d/bias/Assign"
  input: "^CNN/conv_2/conv2d/kernel/Adam/Assign"
  input: "^CNN/conv_2/conv2d/kernel/Adam_1/Assign"
  input: "^CNN/conv_2/conv2d/kernel/Assign"
  input: "^CNN/conv_3/conv2d/bias/Adam/Assign"
  input: "^CNN/conv_3/conv2d/bias/Adam_1/Assign"
  input: "^CNN/conv_3/conv2d/bias/Assign"
  input: "^CNN/conv_3/conv2d/kernel/Adam/Assign"
  input: "^CNN/conv_3/conv2d/kernel/Adam_1/Assign"
  input: "^CNN/conv_3/conv2d/kernel/Assign"
  input: "^global_step/Assign"
  input: "^train/beta1_power/Assign"
  input: "^train/beta2_power/Assign"
}
node {
  name: "init_1"
  op: "NoOp"
  input: "^accuracy/count/Assign"
  input: "^accuracy/total/Assign"
  input: "^mean_accuracy/count/Assign"
  input: "^mean_accuracy/total/Assign"
}
node {
  name: "save_1/filename/input"
  op: "Const"
  attr {
    key: "dtype"
    value {
      type: DT_STRING
    }
  }
  attr {
    key: "value"
    value {
      tensor {
        dtype: DT_STRING
        tensor_shape {
        }
        string_val: "model"
      }
    }
  }
}
node {
  name: "save_1/filename"
  op: "PlaceholderWithDefault"
  input: "save_1/filename/input"
  attr {
    key: "dtype"
    value {
      type: DT_STRING
    }
  }
  attr {
    key: "shape"
    value {
      shape {
      }
    }
  }
}
node {
  name: "save_1/Const"
  op: "PlaceholderWithDefault"
  input: "save_1/filename"
  attr {
    key: "dtype"
    value {
      type: DT_STRING
    }
  }
  attr {
    key: "shape"
    value {
      shape {
      }
    }
  }
}
node {
  name: "save_1/SaveV2/tensor_names"
  op: "Const"
  attr {
    key: "dtype"
    value {
      type: DT_STRING
    }
  }
  attr {
    key: "value"
    value {
      tensor {
        dtype: DT_STRING
        tensor_shape {
          dim {
            size: 33
          }
        }
        string_val: "CNN/1_by_1_conv_1/conv2d/bias"
        string_val: "CNN/1_by_1_conv_1/conv2d/bias/Adam"
        string_val: "CNN/1_by_1_conv_1/conv2d/bias/Adam_1"
        string_val: "CNN/1_by_1_conv_1/conv2d/kernel"
        string_val: "CNN/1_by_1_conv_1/conv2d/kernel/Adam"
        string_val: "CNN/1_by_1_conv_1/conv2d/kernel/Adam_1"
        string_val: "CNN/1_by_1_conv_2/conv2d/bias"
        string_val: "CNN/1_by_1_conv_2/conv2d/bias/Adam"
        string_val: "CNN/1_by_1_conv_2/conv2d/bias/Adam_1"
        string_val: "CNN/1_by_1_conv_2/conv2d/kernel"
        string_val: "CNN/1_by_1_conv_2/conv2d/kernel/Adam"
        string_val: "CNN/1_by_1_conv_2/conv2d/kernel/Adam_1"
        string_val: "CNN/conv_1/conv2d/bias"
        string_val: "CNN/conv_1/conv2d/bias/Adam"
        string_val: "CNN/conv_1/conv2d/bias/Adam_1"
        string_val: "CNN/conv_1/conv2d/kernel"
        string_val: "CNN/conv_1/conv2d/kernel/Adam"
        string_val: "CNN/conv_1/conv2d/kernel/Adam_1"
        string_val: "CNN/conv_2/conv2d/bias"
        string_val: "CNN/conv_2/conv2d/bias/Adam"
        string_val: "CNN/conv_2/conv2d/bias/Adam_1"
        string_val: "CNN/conv_2/conv2d/kernel"
        string_val: "CNN/conv_2/conv2d/kernel/Adam"
        string_val: "CNN/conv_2/conv2d/kernel/Adam_1"
        string_val: "CNN/conv_3/conv2d/bias"
        string_val: "CNN/conv_3/conv2d/bias/Adam"
        string_val: "CNN/conv_3/conv2d/bias/Adam_1"
        string_val: "CNN/conv_3/conv2d/kernel"
        string_val: "CNN/conv_3/conv2d/kernel/Adam"
        string_val: "CNN/conv_3/conv2d/kernel/Adam_1"
        string_val: "global_step"
        string_val: "train/beta1_power"
        string_val: "train/beta2_power"
      }
    }
  }
}
node {
  name: "save_1/SaveV2/shape_and_slices"
  op: "Const"
  attr {
    key: "dtype"
    value {
      type: DT_STRING
    }
  }
  attr {
    key: "value"
    value {
      tensor {
        dtype: DT_STRING
        tensor_shape {
          dim {
            size: 33
          }
        }
        string_val: ""
        string_val: ""
        string_val: ""
        string_val: ""
        string_val: ""
        string_val: ""
        string_val: ""
        string_val: ""
        string_val: ""
        string_val: ""
        string_val: ""
        string_val: ""
        string_val: ""
        string_val: ""
        string_val: ""
        string_val: ""
        string_val: ""
        string_val: ""
        string_val: ""
        string_val: ""
        string_val: ""
        string_val: ""
        string_val: ""
        string_val: ""
        string_val: ""
        string_val: ""
        string_val: ""
        string_val: ""
        string_val: ""
        string_val: ""
        string_val: ""
        string_val: ""
        string_val: ""
      }
    }
  }
}
node {
  name: "save_1/SaveV2"
  op: "SaveV2"
  input: "save_1/Const"
  input: "save_1/SaveV2/tensor_names"
  input: "save_1/SaveV2/shape_and_slices"
  input: "CNN/1_by_1_conv_1/conv2d/bias"
  input: "CNN/1_by_1_conv_1/conv2d/bias/Adam"
  input: "CNN/1_by_1_conv_1/conv2d/bias/Adam_1"
  input: "CNN/1_by_1_conv_1/conv2d/kernel"
  input: "CNN/1_by_1_conv_1/conv2d/kernel/Adam"
  input: "CNN/1_by_1_conv_1/conv2d/kernel/Adam_1"
  input: "CNN/1_by_1_conv_2/conv2d/bias"
  input: "CNN/1_by_1_conv_2/conv2d/bias/Adam"
  input: "CNN/1_by_1_conv_2/conv2d/bias/Adam_1"
  input: "CNN/1_by_1_conv_2/conv2d/kernel"
  input: "CNN/1_by_1_conv_2/conv2d/kernel/Adam"
  input: "CNN/1_by_1_conv_2/conv2d/kernel/Adam_1"
  input: "CNN/conv_1/conv2d/bias"
  input: "CNN/conv_1/conv2d/bias/Adam"
  input: "CNN/conv_1/conv2d/bias/Adam_1"
  input: "CNN/conv_1/conv2d/kernel"
  input: "CNN/conv_1/conv2d/kernel/Adam"
  input: "CNN/conv_1/conv2d/kernel/Adam_1"
  input: "CNN/conv_2/conv2d/bias"
  input: "CNN/conv_2/conv2d/bias/Adam"
  input: "CNN/conv_2/conv2d/bias/Adam_1"
  input: "CNN/conv_2/conv2d/kernel"
  input: "CNN/conv_2/conv2d/kernel/Adam"
  input: "CNN/conv_2/conv2d/kernel/Adam_1"
  input: "CNN/conv_3/conv2d/bias"
  input: "CNN/conv_3/conv2d/bias/Adam"
  input: "CNN/conv_3/conv2d/bias/Adam_1"
  input: "CNN/conv_3/conv2d/kernel"
  input: "CNN/conv_3/conv2d/kernel/Adam"
  input: "CNN/conv_3/conv2d/kernel/Adam_1"
  input: "global_step"
  input: "train/beta1_power"
  input: "train/beta2_power"
  attr {
    key: "dtypes"
    value {
      list {
        type: DT_FLOAT
        type: DT_FLOAT
        type: DT_FLOAT
        type: DT_FLOAT
        type: DT_FLOAT
        type: DT_FLOAT
        type: DT_FLOAT
        type: DT_FLOAT
        type: DT_FLOAT
        type: DT_FLOAT
        type: DT_FLOAT
        type: DT_FLOAT
        type: DT_FLOAT
        type: DT_FLOAT
        type: DT_FLOAT
        type: DT_FLOAT
        type: DT_FLOAT
        type: DT_FLOAT
        type: DT_FLOAT
        type: DT_FLOAT
        type: DT_FLOAT
        type: DT_FLOAT
        type: DT_FLOAT
        type: DT_FLOAT
        type: DT_FLOAT
        type: DT_FLOAT
        type: DT_FLOAT
        type: DT_FLOAT
        type: DT_FLOAT
        type: DT_FLOAT
        type: DT_INT64
        type: DT_FLOAT
        type: DT_FLOAT
      }
    }
  }
}
node {
  name: "save_1/control_dependency"
  op: "Identity"
  input: "save_1/Const"
  input: "^save_1/SaveV2"
  attr {
    key: "T"
    value {
      type: DT_STRING
    }
  }
  attr {
    key: "_class"
    value {
      list {
        s: "loc:@save_1/Const"
      }
    }
  }
}
node {
  name: "save_1/RestoreV2/tensor_names"
  op: "Const"
  device: "/device:CPU:0"
  attr {
    key: "dtype"
    value {
      type: DT_STRING
    }
  }
  attr {
    key: "value"
    value {
      tensor {
        dtype: DT_STRING
        tensor_shape {
          dim {
            size: 33
          }
        }
        string_val: "CNN/1_by_1_conv_1/conv2d/bias"
        string_val: "CNN/1_by_1_conv_1/conv2d/bias/Adam"
        string_val: "CNN/1_by_1_conv_1/conv2d/bias/Adam_1"
        string_val: "CNN/1_by_1_conv_1/conv2d/kernel"
        string_val: "CNN/1_by_1_conv_1/conv2d/kernel/Adam"
        string_val: "CNN/1_by_1_conv_1/conv2d/kernel/Adam_1"
        string_val: "CNN/1_by_1_conv_2/conv2d/bias"
        string_val: "CNN/1_by_1_conv_2/conv2d/bias/Adam"
        string_val: "CNN/1_by_1_conv_2/conv2d/bias/Adam_1"
        string_val: "CNN/1_by_1_conv_2/conv2d/kernel"
        string_val: "CNN/1_by_1_conv_2/conv2d/kernel/Adam"
        string_val: "CNN/1_by_1_conv_2/conv2d/kernel/Adam_1"
        string_val: "CNN/conv_1/conv2d/bias"
        string_val: "CNN/conv_1/conv2d/bias/Adam"
        string_val: "CNN/conv_1/conv2d/bias/Adam_1"
        string_val: "CNN/conv_1/conv2d/kernel"
        string_val: "CNN/conv_1/conv2d/kernel/Adam"
        string_val: "CNN/conv_1/conv2d/kernel/Adam_1"
        string_val: "CNN/conv_2/conv2d/bias"
        string_val: "CNN/conv_2/conv2d/bias/Adam"
        string_val: "CNN/conv_2/conv2d/bias/Adam_1"
        string_val: "CNN/conv_2/conv2d/kernel"
        string_val: "CNN/conv_2/conv2d/kernel/Adam"
        string_val: "CNN/conv_2/conv2d/kernel/Adam_1"
        string_val: "CNN/conv_3/conv2d/bias"
        string_val: "CNN/conv_3/conv2d/bias/Adam"
        string_val: "CNN/conv_3/conv2d/bias/Adam_1"
        string_val: "CNN/conv_3/conv2d/kernel"
        string_val: "CNN/conv_3/conv2d/kernel/Adam"
        string_val: "CNN/conv_3/conv2d/kernel/Adam_1"
        string_val: "global_step"
        string_val: "train/beta1_power"
        string_val: "train/beta2_power"
      }
    }
  }
}
node {
  name: "save_1/RestoreV2/shape_and_slices"
  op: "Const"
  device: "/device:CPU:0"
  attr {
    key: "dtype"
    value {
      type: DT_STRING
    }
  }
  attr {
    key: "value"
    value {
      tensor {
        dtype: DT_STRING
        tensor_shape {
          dim {
            size: 33
          }
        }
        string_val: ""
        string_val: ""
        string_val: ""
        string_val: ""
        string_val: ""
        string_val: ""
        string_val: ""
        string_val: ""
        string_val: ""
        string_val: ""
        string_val: ""
        string_val: ""
        string_val: ""
        string_val: ""
        string_val: ""
        string_val: ""
        string_val: ""
        string_val: ""
        string_val: ""
        string_val: ""
        string_val: ""
        string_val: ""
        string_val: ""
        string_val: ""
        string_val: ""
        string_val: ""
        string_val: ""
        string_val: ""
        string_val: ""
        string_val: ""
        string_val: ""
        string_val: ""
        string_val: ""
      }
    }
  }
}
node {
  name: "save_1/RestoreV2"
  op: "RestoreV2"
  input: "save_1/Const"
  input: "save_1/RestoreV2/tensor_names"
  input: "save_1/RestoreV2/shape_and_slices"
  device: "/device:CPU:0"
  attr {
    key: "dtypes"
    value {
      list {
        type: DT_FLOAT
        type: DT_FLOAT
        type: DT_FLOAT
        type: DT_FLOAT
        type: DT_FLOAT
        type: DT_FLOAT
        type: DT_FLOAT
        type: DT_FLOAT
        type: DT_FLOAT
        type: DT_FLOAT
        type: DT_FLOAT
        type: DT_FLOAT
        type: DT_FLOAT
        type: DT_FLOAT
        type: DT_FLOAT
        type: DT_FLOAT
        type: DT_FLOAT
        type: DT_FLOAT
        type: DT_FLOAT
        type: DT_FLOAT
        type: DT_FLOAT
        type: DT_FLOAT
        type: DT_FLOAT
        type: DT_FLOAT
        type: DT_FLOAT
        type: DT_FLOAT
        type: DT_FLOAT
        type: DT_FLOAT
        type: DT_FLOAT
        type: DT_FLOAT
        type: DT_INT64
        type: DT_FLOAT
        type: DT_FLOAT
      }
    }
  }
}
node {
  name: "save_1/Assign"
  op: "Assign"
  input: "CNN/1_by_1_conv_1/conv2d/bias"
  input: "save_1/RestoreV2"
  attr {
    key: "T"
    value {
      type: DT_FLOAT
    }
  }
  attr {
    key: "_class"
    value {
      list {
        s: "loc:@CNN/1_by_1_conv_1/conv2d/bias"
      }
    }
  }
  attr {
    key: "use_locking"
    value {
      b: true
    }
  }
  attr {
    key: "validate_shape"
    value {
      b: true
    }
  }
}
node {
  name: "save_1/Assign_1"
  op: "Assign"
  input: "CNN/1_by_1_conv_1/conv2d/bias/Adam"
  input: "save_1/RestoreV2:1"
  attr {
    key: "T"
    value {
      type: DT_FLOAT
    }
  }
  attr {
    key: "_class"
    value {
      list {
        s: "loc:@CNN/1_by_1_conv_1/conv2d/bias"
      }
    }
  }
  attr {
    key: "use_locking"
    value {
      b: true
    }
  }
  attr {
    key: "validate_shape"
    value {
      b: true
    }
  }
}
node {
  name: "save_1/Assign_2"
  op: "Assign"
  input: "CNN/1_by_1_conv_1/conv2d/bias/Adam_1"
  input: "save_1/RestoreV2:2"
  attr {
    key: "T"
    value {
      type: DT_FLOAT
    }
  }
  attr {
    key: "_class"
    value {
      list {
        s: "loc:@CNN/1_by_1_conv_1/conv2d/bias"
      }
    }
  }
  attr {
    key: "use_locking"
    value {
      b: true
    }
  }
  attr {
    key: "validate_shape"
    value {
      b: true
    }
  }
}
node {
  name: "save_1/Assign_3"
  op: "Assign"
  input: "CNN/1_by_1_conv_1/conv2d/kernel"
  input: "save_1/RestoreV2:3"
  attr {
    key: "T"
    value {
      type: DT_FLOAT
    }
  }
  attr {
    key: "_class"
    value {
      list {
        s: "loc:@CNN/1_by_1_conv_1/conv2d/kernel"
      }
    }
  }
  attr {
    key: "use_locking"
    value {
      b: true
    }
  }
  attr {
    key: "validate_shape"
    value {
      b: true
    }
  }
}
node {
  name: "save_1/Assign_4"
  op: "Assign"
  input: "CNN/1_by_1_conv_1/conv2d/kernel/Adam"
  input: "save_1/RestoreV2:4"
  attr {
    key: "T"
    value {
      type: DT_FLOAT
    }
  }
  attr {
    key: "_class"
    value {
      list {
        s: "loc:@CNN/1_by_1_conv_1/conv2d/kernel"
      }
    }
  }
  attr {
    key: "use_locking"
    value {
      b: true
    }
  }
  attr {
    key: "validate_shape"
    value {
      b: true
    }
  }
}
node {
  name: "save_1/Assign_5"
  op: "Assign"
  input: "CNN/1_by_1_conv_1/conv2d/kernel/Adam_1"
  input: "save_1/RestoreV2:5"
  attr {
    key: "T"
    value {
      type: DT_FLOAT
    }
  }
  attr {
    key: "_class"
    value {
      list {
        s: "loc:@CNN/1_by_1_conv_1/conv2d/kernel"
      }
    }
  }
  attr {
    key: "use_locking"
    value {
      b: true
    }
  }
  attr {
    key: "validate_shape"
    value {
      b: true
    }
  }
}
node {
  name: "save_1/Assign_6"
  op: "Assign"
  input: "CNN/1_by_1_conv_2/conv2d/bias"
  input: "save_1/RestoreV2:6"
  attr {
    key: "T"
    value {
      type: DT_FLOAT
    }
  }
  attr {
    key: "_class"
    value {
      list {
        s: "loc:@CNN/1_by_1_conv_2/conv2d/bias"
      }
    }
  }
  attr {
    key: "use_locking"
    value {
      b: true
    }
  }
  attr {
    key: "validate_shape"
    value {
      b: true
    }
  }
}
node {
  name: "save_1/Assign_7"
  op: "Assign"
  input: "CNN/1_by_1_conv_2/conv2d/bias/Adam"
  input: "save_1/RestoreV2:7"
  attr {
    key: "T"
    value {
      type: DT_FLOAT
    }
  }
  attr {
    key: "_class"
    value {
      list {
        s: "loc:@CNN/1_by_1_conv_2/conv2d/bias"
      }
    }
  }
  attr {
    key: "use_locking"
    value {
      b: true
    }
  }
  attr {
    key: "validate_shape"
    value {
      b: true
    }
  }
}
node {
  name: "save_1/Assign_8"
  op: "Assign"
  input: "CNN/1_by_1_conv_2/conv2d/bias/Adam_1"
  input: "save_1/RestoreV2:8"
  attr {
    key: "T"
    value {
      type: DT_FLOAT
    }
  }
  attr {
    key: "_class"
    value {
      list {
        s: "loc:@CNN/1_by_1_conv_2/conv2d/bias"
      }
    }
  }
  attr {
    key: "use_locking"
    value {
      b: true
    }
  }
  attr {
    key: "validate_shape"
    value {
      b: true
    }
  }
}
node {
  name: "save_1/Assign_9"
  op: "Assign"
  input: "CNN/1_by_1_conv_2/conv2d/kernel"
  input: "save_1/RestoreV2:9"
  attr {
    key: "T"
    value {
      type: DT_FLOAT
    }
  }
  attr {
    key: "_class"
    value {
      list {
        s: "loc:@CNN/1_by_1_conv_2/conv2d/kernel"
      }
    }
  }
  attr {
    key: "use_locking"
    value {
      b: true
    }
  }
  attr {
    key: "validate_shape"
    value {
      b: true
    }
  }
}
node {
  name: "save_1/Assign_10"
  op: "Assign"
  input: "CNN/1_by_1_conv_2/conv2d/kernel/Adam"
  input: "save_1/RestoreV2:10"
  attr {
    key: "T"
    value {
      type: DT_FLOAT
    }
  }
  attr {
    key: "_class"
    value {
      list {
        s: "loc:@CNN/1_by_1_conv_2/conv2d/kernel"
      }
    }
  }
  attr {
    key: "use_locking"
    value {
      b: true
    }
  }
  attr {
    key: "validate_shape"
    value {
      b: true
    }
  }
}
node {
  name: "save_1/Assign_11"
  op: "Assign"
  input: "CNN/1_by_1_conv_2/conv2d/kernel/Adam_1"
  input: "save_1/RestoreV2:11"
  attr {
    key: "T"
    value {
      type: DT_FLOAT
    }
  }
  attr {
    key: "_class"
    value {
      list {
        s: "loc:@CNN/1_by_1_conv_2/conv2d/kernel"
      }
    }
  }
  attr {
    key: "use_locking"
    value {
      b: true
    }
  }
  attr {
    key: "validate_shape"
    value {
      b: true
    }
  }
}
node {
  name: "save_1/Assign_12"
  op: "Assign"
  input: "CNN/conv_1/conv2d/bias"
  input: "save_1/RestoreV2:12"
  attr {
    key: "T"
    value {
      type: DT_FLOAT
    }
  }
  attr {
    key: "_class"
    value {
      list {
        s: "loc:@CNN/conv_1/conv2d/bias"
      }
    }
  }
  attr {
    key: "use_locking"
    value {
      b: true
    }
  }
  attr {
    key: "validate_shape"
    value {
      b: true
    }
  }
}
node {
  name: "save_1/Assign_13"
  op: "Assign"
  input: "CNN/conv_1/conv2d/bias/Adam"
  input: "save_1/RestoreV2:13"
  attr {
    key: "T"
    value {
      type: DT_FLOAT
    }
  }
  attr {
    key: "_class"
    value {
      list {
        s: "loc:@CNN/conv_1/conv2d/bias"
      }
    }
  }
  attr {
    key: "use_locking"
    value {
      b: true
    }
  }
  attr {
    key: "validate_shape"
    value {
      b: true
    }
  }
}
node {
  name: "save_1/Assign_14"
  op: "Assign"
  input: "CNN/conv_1/conv2d/bias/Adam_1"
  input: "save_1/RestoreV2:14"
  attr {
    key: "T"
    value {
      type: DT_FLOAT
    }
  }
  attr {
    key: "_class"
    value {
      list {
        s: "loc:@CNN/conv_1/conv2d/bias"
      }
    }
  }
  attr {
    key: "use_locking"
    value {
      b: true
    }
  }
  attr {
    key: "validate_shape"
    value {
      b: true
    }
  }
}
node {
  name: "save_1/Assign_15"
  op: "Assign"
  input: "CNN/conv_1/conv2d/kernel"
  input: "save_1/RestoreV2:15"
  attr {
    key: "T"
    value {
      type: DT_FLOAT
    }
  }
  attr {
    key: "_class"
    value {
      list {
        s: "loc:@CNN/conv_1/conv2d/kernel"
      }
    }
  }
  attr {
    key: "use_locking"
    value {
      b: true
    }
  }
  attr {
    key: "validate_shape"
    value {
      b: true
    }
  }
}
node {
  name: "save_1/Assign_16"
  op: "Assign"
  input: "CNN/conv_1/conv2d/kernel/Adam"
  input: "save_1/RestoreV2:16"
  attr {
    key: "T"
    value {
      type: DT_FLOAT
    }
  }
  attr {
    key: "_class"
    value {
      list {
        s: "loc:@CNN/conv_1/conv2d/kernel"
      }
    }
  }
  attr {
    key: "use_locking"
    value {
      b: true
    }
  }
  attr {
    key: "validate_shape"
    value {
      b: true
    }
  }
}
node {
  name: "save_1/Assign_17"
  op: "Assign"
  input: "CNN/conv_1/conv2d/kernel/Adam_1"
  input: "save_1/RestoreV2:17"
  attr {
    key: "T"
    value {
      type: DT_FLOAT
    }
  }
  attr {
    key: "_class"
    value {
      list {
        s: "loc:@CNN/conv_1/conv2d/kernel"
      }
    }
  }
  attr {
    key: "use_locking"
    value {
      b: true
    }
  }
  attr {
    key: "validate_shape"
    value {
      b: true
    }
  }
}
node {
  name: "save_1/Assign_18"
  op: "Assign"
  input: "CNN/conv_2/conv2d/bias"
  input: "save_1/RestoreV2:18"
  attr {
    key: "T"
    value {
      type: DT_FLOAT
    }
  }
  attr {
    key: "_class"
    value {
      list {
        s: "loc:@CNN/conv_2/conv2d/bias"
      }
    }
  }
  attr {
    key: "use_locking"
    value {
      b: true
    }
  }
  attr {
    key: "validate_shape"
    value {
      b: true
    }
  }
}
node {
  name: "save_1/Assign_19"
  op: "Assign"
  input: "CNN/conv_2/conv2d/bias/Adam"
  input: "save_1/RestoreV2:19"
  attr {
    key: "T"
    value {
      type: DT_FLOAT
    }
  }
  attr {
    key: "_class"
    value {
      list {
        s: "loc:@CNN/conv_2/conv2d/bias"
      }
    }
  }
  attr {
    key: "use_locking"
    value {
      b: true
    }
  }
  attr {
    key: "validate_shape"
    value {
      b: true
    }
  }
}
node {
  name: "save_1/Assign_20"
  op: "Assign"
  input: "CNN/conv_2/conv2d/bias/Adam_1"
  input: "save_1/RestoreV2:20"
  attr {
    key: "T"
    value {
      type: DT_FLOAT
    }
  }
  attr {
    key: "_class"
    value {
      list {
        s: "loc:@CNN/conv_2/conv2d/bias"
      }
    }
  }
  attr {
    key: "use_locking"
    value {
      b: true
    }
  }
  attr {
    key: "validate_shape"
    value {
      b: true
    }
  }
}
node {
  name: "save_1/Assign_21"
  op: "Assign"
  input: "CNN/conv_2/conv2d/kernel"
  input: "save_1/RestoreV2:21"
  attr {
    key: "T"
    value {
      type: DT_FLOAT
    }
  }
  attr {
    key: "_class"
    value {
      list {
        s: "loc:@CNN/conv_2/conv2d/kernel"
      }
    }
  }
  attr {
    key: "use_locking"
    value {
      b: true
    }
  }
  attr {
    key: "validate_shape"
    value {
      b: true
    }
  }
}
node {
  name: "save_1/Assign_22"
  op: "Assign"
  input: "CNN/conv_2/conv2d/kernel/Adam"
  input: "save_1/RestoreV2:22"
  attr {
    key: "T"
    value {
      type: DT_FLOAT
    }
  }
  attr {
    key: "_class"
    value {
      list {
        s: "loc:@CNN/conv_2/conv2d/kernel"
      }
    }
  }
  attr {
    key: "use_locking"
    value {
      b: true
    }
  }
  attr {
    key: "validate_shape"
    value {
      b: true
    }
  }
}
node {
  name: "save_1/Assign_23"
  op: "Assign"
  input: "CNN/conv_2/conv2d/kernel/Adam_1"
  input: "save_1/RestoreV2:23"
  attr {
    key: "T"
    value {
      type: DT_FLOAT
    }
  }
  attr {
    key: "_class"
    value {
      list {
        s: "loc:@CNN/conv_2/conv2d/kernel"
      }
    }
  }
  attr {
    key: "use_locking"
    value {
      b: true
    }
  }
  attr {
    key: "validate_shape"
    value {
      b: true
    }
  }
}
node {
  name: "save_1/Assign_24"
  op: "Assign"
  input: "CNN/conv_3/conv2d/bias"
  input: "save_1/RestoreV2:24"
  attr {
    key: "T"
    value {
      type: DT_FLOAT
    }
  }
  attr {
    key: "_class"
    value {
      list {
        s: "loc:@CNN/conv_3/conv2d/bias"
      }
    }
  }
  attr {
    key: "use_locking"
    value {
      b: true
    }
  }
  attr {
    key: "validate_shape"
    value {
      b: true
    }
  }
}
node {
  name: "save_1/Assign_25"
  op: "Assign"
  input: "CNN/conv_3/conv2d/bias/Adam"
  input: "save_1/RestoreV2:25"
  attr {
    key: "T"
    value {
      type: DT_FLOAT
    }
  }
  attr {
    key: "_class"
    value {
      list {
        s: "loc:@CNN/conv_3/conv2d/bias"
      }
    }
  }
  attr {
    key: "use_locking"
    value {
      b: true
    }
  }
  attr {
    key: "validate_shape"
    value {
      b: true
    }
  }
}
node {
  name: "save_1/Assign_26"
  op: "Assign"
  input: "CNN/conv_3/conv2d/bias/Adam_1"
  input: "save_1/RestoreV2:26"
  attr {
    key: "T"
    value {
      type: DT_FLOAT
    }
  }
  attr {
    key: "_class"
    value {
      list {
        s: "loc:@CNN/conv_3/conv2d/bias"
      }
    }
  }
  attr {
    key: "use_locking"
    value {
      b: true
    }
  }
  attr {
    key: "validate_shape"
    value {
      b: true
    }
  }
}
node {
  name: "save_1/Assign_27"
  op: "Assign"
  input: "CNN/conv_3/conv2d/kernel"
  input: "save_1/RestoreV2:27"
  attr {
    key: "T"
    value {
      type: DT_FLOAT
    }
  }
  attr {
    key: "_class"
    value {
      list {
        s: "loc:@CNN/conv_3/conv2d/kernel"
      }
    }
  }
  attr {
    key: "use_locking"
    value {
      b: true
    }
  }
  attr {
    key: "validate_shape"
    value {
      b: true
    }
  }
}
node {
  name: "save_1/Assign_28"
  op: "Assign"
  input: "CNN/conv_3/conv2d/kernel/Adam"
  input: "save_1/RestoreV2:28"
  attr {
    key: "T"
    value {
      type: DT_FLOAT
    }
  }
  attr {
    key: "_class"
    value {
      list {
        s: "loc:@CNN/conv_3/conv2d/kernel"
      }
    }
  }
  attr {
    key: "use_locking"
    value {
      b: true
    }
  }
  attr {
    key: "validate_shape"
    value {
      b: true
    }
  }
}
node {
  name: "save_1/Assign_29"
  op: "Assign"
  input: "CNN/conv_3/conv2d/kernel/Adam_1"
  input: "save_1/RestoreV2:29"
  attr {
    key: "T"
    value {
      type: DT_FLOAT
    }
  }
  attr {
    key: "_class"
    value {
      list {
        s: "loc:@CNN/conv_3/conv2d/kernel"
      }
    }
  }
  attr {
    key: "use_locking"
    value {
      b: true
    }
  }
  attr {
    key: "validate_shape"
    value {
      b: true
    }
  }
}
node {
  name: "save_1/Assign_30"
  op: "Assign"
  input: "global_step"
  input: "save_1/RestoreV2:30"
  attr {
    key: "T"
    value {
      type: DT_INT64
    }
  }
  attr {
    key: "_class"
    value {
      list {
        s: "loc:@global_step"
      }
    }
  }
  attr {
    key: "use_locking"
    value {
      b: true
    }
  }
  attr {
    key: "validate_shape"
    value {
      b: true
    }
  }
}
node {
  name: "save_1/Assign_31"
  op: "Assign"
  input: "train/beta1_power"
  input: "save_1/RestoreV2:31"
  attr {
    key: "T"
    value {
      type: DT_FLOAT
    }
  }
  attr {
    key: "_class"
    value {
      list {
        s: "loc:@CNN/1_by_1_conv_1/conv2d/bias"
      }
    }
  }
  attr {
    key: "use_locking"
    value {
      b: true
    }
  }
  attr {
    key: "validate_shape"
    value {
      b: true
    }
  }
}
node {
  name: "save_1/Assign_32"
  op: "Assign"
  input: "train/beta2_power"
  input: "save_1/RestoreV2:32"
  attr {
    key: "T"
    value {
      type: DT_FLOAT
    }
  }
  attr {
    key: "_class"
    value {
      list {
        s: "loc:@CNN/1_by_1_conv_1/conv2d/bias"
      }
    }
  }
  attr {
    key: "use_locking"
    value {
      b: true
    }
  }
  attr {
    key: "validate_shape"
    value {
      b: true
    }
  }
}
node {
  name: "save_1/restore_all"
  op: "NoOp"
  input: "^save_1/Assign"
  input: "^save_1/Assign_1"
  input: "^save_1/Assign_10"
  input: "^save_1/Assign_11"
  input: "^save_1/Assign_12"
  input: "^save_1/Assign_13"
  input: "^save_1/Assign_14"
  input: "^save_1/Assign_15"
  input: "^save_1/Assign_16"
  input: "^save_1/Assign_17"
  input: "^save_1/Assign_18"
  input: "^save_1/Assign_19"
  input: "^save_1/Assign_2"
  input: "^save_1/Assign_20"
  input: "^save_1/Assign_21"
  input: "^save_1/Assign_22"
  input: "^save_1/Assign_23"
  input: "^save_1/Assign_24"
  input: "^save_1/Assign_25"
  input: "^save_1/Assign_26"
  input: "^save_1/Assign_27"
  input: "^save_1/Assign_28"
  input: "^save_1/Assign_29"
  input: "^save_1/Assign_3"
  input: "^save_1/Assign_30"
  input: "^save_1/Assign_31"
  input: "^save_1/Assign_32"
  input: "^save_1/Assign_4"
  input: "^save_1/Assign_5"
  input: "^save_1/Assign_6"
  input: "^save_1/Assign_7"
  input: "^save_1/Assign_8"
  input: "^save_1/Assign_9"
}
versions {
  producer: 27
}
